{
    "format": "graph-model",
    "generatedBy": "2.5.0",
    "convertedBy": "TensorFlow.js Converter v3.19.0",
    "signature": {
      "inputs": {
        "inputs": {
          "name": "inputs:0",
          "dtype": "DT_FLOAT",
          "tensorShape": {
            "dim": [
              {
                "size": "-1"
              },
              {
                "size": "144000"
              }
            ]
          }
        }
      },
      "outputs": {
        "scores": {
          "name": "Identity:0",
          "dtype": "DT_FLOAT",
          "tensorShape": {
            "dim": [
              {
                "size": "-1"
              },
              {
                "size": "6522"
              }
            ]
          }
        }
      }
    },
    "modelTopology": {
      "node": [
        {
          "name": "StatefulPartitionedCall/model/BLOCK_4-4_SE_AVG_POOL_1/Mean/reduction_indices",
          "op": "Const",
          "attr": {
            "value": {
              "tensor": {
                "dtype": "DT_INT32",
                "tensorShape": {
                  "dim": [
                    {
                      "size": "2"
                    }
                  ]
                }
              }
            },
            "dtype": {
              "type": "DT_INT32"
            }
          }
        },
        {
          "name": "StatefulPartitionedCall/model/BLOCK_4-4_SE_RESHAPE/strided_slice/stack",
          "op": "Const",
          "attr": {
            "value": {
              "tensor": {
                "dtype": "DT_INT32",
                "tensorShape": {
                  "dim": [
                    {
                      "size": "1"
                    }
                  ]
                }
              }
            },
            "dtype": {
              "type": "DT_INT32"
            }
          }
        },
        {
          "name": "StatefulPartitionedCall/model/BLOCK_4-4_SE_RESHAPE/strided_slice/stack_1",
          "op": "Const",
          "attr": {
            "dtype": {
              "type": "DT_INT32"
            },
            "value": {
              "tensor": {
                "dtype": "DT_INT32",
                "tensorShape": {
                  "dim": [
                    {
                      "size": "1"
                    }
                  ]
                }
              }
            }
          }
        },
        {
          "name": "StatefulPartitionedCall/model/BLOCK_4-4_SE_RESHAPE/strided_slice/stack_2",
          "op": "Const",
          "attr": {
            "dtype": {
              "type": "DT_INT32"
            },
            "value": {
              "tensor": {
                "dtype": "DT_INT32",
                "tensorShape": {
                  "dim": [
                    {
                      "size": "1"
                    }
                  ]
                }
              }
            }
          }
        },
        {
          "name": "StatefulPartitionedCall/model/BLOCK_4-4_SE_RESHAPE/Reshape/shape/1",
          "op": "Const",
          "attr": {
            "value": {
              "tensor": {
                "dtype": "DT_INT32",
                "tensorShape": {}
              }
            },
            "dtype": {
              "type": "DT_INT32"
            }
          }
        },
        {
          "name": "StatefulPartitionedCall/model/BLOCK_4-4_SE_RESHAPE/Reshape/shape/2",
          "op": "Const",
          "attr": {
            "value": {
              "tensor": {
                "dtype": "DT_INT32",
                "tensorShape": {}
              }
            },
            "dtype": {
              "type": "DT_INT32"
            }
          }
        },
        {
          "name": "StatefulPartitionedCall/model/BLOCK_4-4_SE_RESHAPE/Reshape/shape/3",
          "op": "Const",
          "attr": {
            "dtype": {
              "type": "DT_INT32"
            },
            "value": {
              "tensor": {
                "dtype": "DT_INT32",
                "tensorShape": {}
              }
            }
          }
        },
        {
          "name": "StatefulPartitionedCall/model/BLOCK_4-4_SE_CONV_1/Conv2D/ReadVariableOp",
          "op": "Const",
          "attr": {
            "dtype": {
              "type": "DT_FLOAT"
            },
            "value": {
              "tensor": {
                "dtype": "DT_FLOAT",
                "tensorShape": {
                  "dim": [
                    {
                      "size": "1"
                    },
                    {
                      "size": "1"
                    },
                    {
                      "size": "1536"
                    },
                    {
                      "size": "48"
                    }
                  ]
                }
              }
            }
          }
        },
        {
          "name": "StatefulPartitionedCall/model/BLOCK_4-4_SE_CONV_2/Conv2D/ReadVariableOp",
          "op": "Const",
          "attr": {
            "value": {
              "tensor": {
                "dtype": "DT_FLOAT",
                "tensorShape": {
                  "dim": [
                    {
                      "size": "1"
                    },
                    {
                      "size": "1"
                    },
                    {
                      "size": "48"
                    },
                    {
                      "size": "1536"
                    }
                  ]
                }
              }
            },
            "dtype": {
              "type": "DT_FLOAT"
            }
          }
        },
        {
          "name": "StatefulPartitionedCall/model/BLOCK_4-4_CONV_3/Conv2D/ReadVariableOp",
          "op": "Const",
          "attr": {
            "value": {
              "tensor": {
                "dtype": "DT_FLOAT",
                "tensorShape": {
                  "dim": [
                    {
                      "size": "1"
                    },
                    {
                      "size": "1"
                    },
                    {
                      "size": "1536"
                    },
                    {
                      "size": "192"
                    }
                  ]
                }
              }
            },
            "dtype": {
              "type": "DT_FLOAT"
            }
          }
        },
        {
          "name": "StatefulPartitionedCall/model/BLOCK_4-3_SE_AVG_POOL_1/Mean/reduction_indices",
          "op": "Const",
          "attr": {
            "value": {
              "tensor": {
                "dtype": "DT_INT32",
                "tensorShape": {
                  "dim": [
                    {
                      "size": "2"
                    }
                  ]
                }
              }
            },
            "dtype": {
              "type": "DT_INT32"
            }
          }
        },
        {
          "name": "StatefulPartitionedCall/model/BLOCK_4-3_SE_RESHAPE/strided_slice/stack",
          "op": "Const",
          "attr": {
            "dtype": {
              "type": "DT_INT32"
            },
            "value": {
              "tensor": {
                "dtype": "DT_INT32",
                "tensorShape": {
                  "dim": [
                    {
                      "size": "1"
                    }
                  ]
                }
              }
            }
          }
        },
        {
          "name": "StatefulPartitionedCall/model/BLOCK_4-3_SE_RESHAPE/strided_slice/stack_1",
          "op": "Const",
          "attr": {
            "dtype": {
              "type": "DT_INT32"
            },
            "value": {
              "tensor": {
                "dtype": "DT_INT32",
                "tensorShape": {
                  "dim": [
                    {
                      "size": "1"
                    }
                  ]
                }
              }
            }
          }
        },
        {
          "name": "StatefulPartitionedCall/model/BLOCK_4-3_SE_RESHAPE/strided_slice/stack_2",
          "op": "Const",
          "attr": {
            "dtype": {
              "type": "DT_INT32"
            },
            "value": {
              "tensor": {
                "dtype": "DT_INT32",
                "tensorShape": {
                  "dim": [
                    {
                      "size": "1"
                    }
                  ]
                }
              }
            }
          }
        },
        {
          "name": "StatefulPartitionedCall/model/BLOCK_4-3_SE_RESHAPE/Reshape/shape/1",
          "op": "Const",
          "attr": {
            "dtype": {
              "type": "DT_INT32"
            },
            "value": {
              "tensor": {
                "dtype": "DT_INT32",
                "tensorShape": {}
              }
            }
          }
        },
        {
          "name": "StatefulPartitionedCall/model/BLOCK_4-3_SE_RESHAPE/Reshape/shape/2",
          "op": "Const",
          "attr": {
            "dtype": {
              "type": "DT_INT32"
            },
            "value": {
              "tensor": {
                "dtype": "DT_INT32",
                "tensorShape": {}
              }
            }
          }
        },
        {
          "name": "StatefulPartitionedCall/model/BLOCK_4-3_SE_RESHAPE/Reshape/shape/3",
          "op": "Const",
          "attr": {
            "dtype": {
              "type": "DT_INT32"
            },
            "value": {
              "tensor": {
                "dtype": "DT_INT32",
                "tensorShape": {}
              }
            }
          }
        },
        {
          "name": "StatefulPartitionedCall/model/BLOCK_4-3_SE_CONV_1/Conv2D/ReadVariableOp",
          "op": "Const",
          "attr": {
            "dtype": {
              "type": "DT_FLOAT"
            },
            "value": {
              "tensor": {
                "dtype": "DT_FLOAT",
                "tensorShape": {
                  "dim": [
                    {
                      "size": "1"
                    },
                    {
                      "size": "1"
                    },
                    {
                      "size": "1536"
                    },
                    {
                      "size": "48"
                    }
                  ]
                }
              }
            }
          }
        },
        {
          "name": "StatefulPartitionedCall/model/BLOCK_4-3_SE_CONV_2/Conv2D/ReadVariableOp",
          "op": "Const",
          "attr": {
            "value": {
              "tensor": {
                "dtype": "DT_FLOAT",
                "tensorShape": {
                  "dim": [
                    {
                      "size": "1"
                    },
                    {
                      "size": "1"
                    },
                    {
                      "size": "48"
                    },
                    {
                      "size": "1536"
                    }
                  ]
                }
              }
            },
            "dtype": {
              "type": "DT_FLOAT"
            }
          }
        },
        {
          "name": "StatefulPartitionedCall/model/BLOCK_4-3_CONV_3/Conv2D/ReadVariableOp",
          "op": "Const",
          "attr": {
            "value": {
              "tensor": {
                "dtype": "DT_FLOAT",
                "tensorShape": {
                  "dim": [
                    {
                      "size": "1"
                    },
                    {
                      "size": "1"
                    },
                    {
                      "size": "1536"
                    },
                    {
                      "size": "192"
                    }
                  ]
                }
              }
            },
            "dtype": {
              "type": "DT_FLOAT"
            }
          }
        },
        {
          "name": "StatefulPartitionedCall/model/BLOCK_4-2_SE_AVG_POOL_1/Mean/reduction_indices",
          "op": "Const",
          "attr": {
            "dtype": {
              "type": "DT_INT32"
            },
            "value": {
              "tensor": {
                "dtype": "DT_INT32",
                "tensorShape": {
                  "dim": [
                    {
                      "size": "2"
                    }
                  ]
                }
              }
            }
          }
        },
        {
          "name": "StatefulPartitionedCall/model/BLOCK_4-2_SE_RESHAPE/strided_slice/stack",
          "op": "Const",
          "attr": {
            "value": {
              "tensor": {
                "dtype": "DT_INT32",
                "tensorShape": {
                  "dim": [
                    {
                      "size": "1"
                    }
                  ]
                }
              }
            },
            "dtype": {
              "type": "DT_INT32"
            }
          }
        },
        {
          "name": "StatefulPartitionedCall/model/BLOCK_4-2_SE_RESHAPE/strided_slice/stack_1",
          "op": "Const",
          "attr": {
            "value": {
              "tensor": {
                "dtype": "DT_INT32",
                "tensorShape": {
                  "dim": [
                    {
                      "size": "1"
                    }
                  ]
                }
              }
            },
            "dtype": {
              "type": "DT_INT32"
            }
          }
        },
        {
          "name": "StatefulPartitionedCall/model/BLOCK_4-2_SE_RESHAPE/strided_slice/stack_2",
          "op": "Const",
          "attr": {
            "value": {
              "tensor": {
                "dtype": "DT_INT32",
                "tensorShape": {
                  "dim": [
                    {
                      "size": "1"
                    }
                  ]
                }
              }
            },
            "dtype": {
              "type": "DT_INT32"
            }
          }
        },
        {
          "name": "StatefulPartitionedCall/model/BLOCK_4-2_SE_RESHAPE/Reshape/shape/1",
          "op": "Const",
          "attr": {
            "dtype": {
              "type": "DT_INT32"
            },
            "value": {
              "tensor": {
                "dtype": "DT_INT32",
                "tensorShape": {}
              }
            }
          }
        },
        {
          "name": "StatefulPartitionedCall/model/BLOCK_4-2_SE_RESHAPE/Reshape/shape/2",
          "op": "Const",
          "attr": {
            "dtype": {
              "type": "DT_INT32"
            },
            "value": {
              "tensor": {
                "dtype": "DT_INT32",
                "tensorShape": {}
              }
            }
          }
        },
        {
          "name": "StatefulPartitionedCall/model/BLOCK_4-2_SE_RESHAPE/Reshape/shape/3",
          "op": "Const",
          "attr": {
            "dtype": {
              "type": "DT_INT32"
            },
            "value": {
              "tensor": {
                "dtype": "DT_INT32",
                "tensorShape": {}
              }
            }
          }
        },
        {
          "name": "StatefulPartitionedCall/model/BLOCK_4-2_SE_CONV_1/Conv2D/ReadVariableOp",
          "op": "Const",
          "attr": {
            "dtype": {
              "type": "DT_FLOAT"
            },
            "value": {
              "tensor": {
                "dtype": "DT_FLOAT",
                "tensorShape": {
                  "dim": [
                    {
                      "size": "1"
                    },
                    {
                      "size": "1"
                    },
                    {
                      "size": "1536"
                    },
                    {
                      "size": "48"
                    }
                  ]
                }
              }
            }
          }
        },
        {
          "name": "StatefulPartitionedCall/model/BLOCK_4-2_SE_CONV_2/Conv2D/ReadVariableOp",
          "op": "Const",
          "attr": {
            "value": {
              "tensor": {
                "dtype": "DT_FLOAT",
                "tensorShape": {
                  "dim": [
                    {
                      "size": "1"
                    },
                    {
                      "size": "1"
                    },
                    {
                      "size": "48"
                    },
                    {
                      "size": "1536"
                    }
                  ]
                }
              }
            },
            "dtype": {
              "type": "DT_FLOAT"
            }
          }
        },
        {
          "name": "StatefulPartitionedCall/model/BLOCK_4-2_CONV_3/Conv2D/ReadVariableOp",
          "op": "Const",
          "attr": {
            "dtype": {
              "type": "DT_FLOAT"
            },
            "value": {
              "tensor": {
                "dtype": "DT_FLOAT",
                "tensorShape": {
                  "dim": [
                    {
                      "size": "1"
                    },
                    {
                      "size": "1"
                    },
                    {
                      "size": "1536"
                    },
                    {
                      "size": "192"
                    }
                  ]
                }
              }
            }
          }
        },
        {
          "name": "StatefulPartitionedCall/model/BLOCK_3-5_SE_AVG_POOL_1/Mean/reduction_indices",
          "op": "Const",
          "attr": {
            "dtype": {
              "type": "DT_INT32"
            },
            "value": {
              "tensor": {
                "dtype": "DT_INT32",
                "tensorShape": {
                  "dim": [
                    {
                      "size": "2"
                    }
                  ]
                }
              }
            }
          }
        },
        {
          "name": "StatefulPartitionedCall/model/BLOCK_3-5_SE_RESHAPE/strided_slice/stack",
          "op": "Const",
          "attr": {
            "value": {
              "tensor": {
                "dtype": "DT_INT32",
                "tensorShape": {
                  "dim": [
                    {
                      "size": "1"
                    }
                  ]
                }
              }
            },
            "dtype": {
              "type": "DT_INT32"
            }
          }
        },
        {
          "name": "StatefulPartitionedCall/model/BLOCK_3-5_SE_RESHAPE/strided_slice/stack_1",
          "op": "Const",
          "attr": {
            "dtype": {
              "type": "DT_INT32"
            },
            "value": {
              "tensor": {
                "dtype": "DT_INT32",
                "tensorShape": {
                  "dim": [
                    {
                      "size": "1"
                    }
                  ]
                }
              }
            }
          }
        },
        {
          "name": "StatefulPartitionedCall/model/BLOCK_3-5_SE_RESHAPE/strided_slice/stack_2",
          "op": "Const",
          "attr": {
            "dtype": {
              "type": "DT_INT32"
            },
            "value": {
              "tensor": {
                "dtype": "DT_INT32",
                "tensorShape": {
                  "dim": [
                    {
                      "size": "1"
                    }
                  ]
                }
              }
            }
          }
        },
        {
          "name": "StatefulPartitionedCall/model/BLOCK_3-5_SE_RESHAPE/Reshape/shape/1",
          "op": "Const",
          "attr": {
            "value": {
              "tensor": {
                "dtype": "DT_INT32",
                "tensorShape": {}
              }
            },
            "dtype": {
              "type": "DT_INT32"
            }
          }
        },
        {
          "name": "StatefulPartitionedCall/model/BLOCK_3-5_SE_RESHAPE/Reshape/shape/2",
          "op": "Const",
          "attr": {
            "value": {
              "tensor": {
                "dtype": "DT_INT32",
                "tensorShape": {}
              }
            },
            "dtype": {
              "type": "DT_INT32"
            }
          }
        },
        {
          "name": "StatefulPartitionedCall/model/BLOCK_3-5_SE_RESHAPE/Reshape/shape/3",
          "op": "Const",
          "attr": {
            "value": {
              "tensor": {
                "dtype": "DT_INT32",
                "tensorShape": {}
              }
            },
            "dtype": {
              "type": "DT_INT32"
            }
          }
        },
        {
          "name": "StatefulPartitionedCall/model/BLOCK_3-5_SE_CONV_1/Conv2D/ReadVariableOp",
          "op": "Const",
          "attr": {
            "value": {
              "tensor": {
                "dtype": "DT_FLOAT",
                "tensorShape": {
                  "dim": [
                    {
                      "size": "1"
                    },
                    {
                      "size": "1"
                    },
                    {
                      "size": "864"
                    },
                    {
                      "size": "27"
                    }
                  ]
                }
              }
            },
            "dtype": {
              "type": "DT_FLOAT"
            }
          }
        },
        {
          "name": "StatefulPartitionedCall/model/BLOCK_3-5_SE_CONV_2/Conv2D/ReadVariableOp",
          "op": "Const",
          "attr": {
            "value": {
              "tensor": {
                "dtype": "DT_FLOAT",
                "tensorShape": {
                  "dim": [
                    {
                      "size": "1"
                    },
                    {
                      "size": "1"
                    },
                    {
                      "size": "27"
                    },
                    {
                      "size": "864"
                    }
                  ]
                }
              }
            },
            "dtype": {
              "type": "DT_FLOAT"
            }
          }
        },
        {
          "name": "StatefulPartitionedCall/model/BLOCK_3-5_CONV_3/Conv2D/ReadVariableOp",
          "op": "Const",
          "attr": {
            "dtype": {
              "type": "DT_FLOAT"
            },
            "value": {
              "tensor": {
                "dtype": "DT_FLOAT",
                "tensorShape": {
                  "dim": [
                    {
                      "size": "1"
                    },
                    {
                      "size": "1"
                    },
                    {
                      "size": "864"
                    },
                    {
                      "size": "108"
                    }
                  ]
                }
              }
            }
          }
        },
        {
          "name": "StatefulPartitionedCall/model/BLOCK_3-4_SE_AVG_POOL_1/Mean/reduction_indices",
          "op": "Const",
          "attr": {
            "dtype": {
              "type": "DT_INT32"
            },
            "value": {
              "tensor": {
                "dtype": "DT_INT32",
                "tensorShape": {
                  "dim": [
                    {
                      "size": "2"
                    }
                  ]
                }
              }
            }
          }
        },
        {
          "name": "StatefulPartitionedCall/model/BLOCK_3-4_SE_RESHAPE/strided_slice/stack",
          "op": "Const",
          "attr": {
            "dtype": {
              "type": "DT_INT32"
            },
            "value": {
              "tensor": {
                "dtype": "DT_INT32",
                "tensorShape": {
                  "dim": [
                    {
                      "size": "1"
                    }
                  ]
                }
              }
            }
          }
        },
        {
          "name": "StatefulPartitionedCall/model/BLOCK_3-4_SE_RESHAPE/strided_slice/stack_1",
          "op": "Const",
          "attr": {
            "dtype": {
              "type": "DT_INT32"
            },
            "value": {
              "tensor": {
                "dtype": "DT_INT32",
                "tensorShape": {
                  "dim": [
                    {
                      "size": "1"
                    }
                  ]
                }
              }
            }
          }
        },
        {
          "name": "StatefulPartitionedCall/model/BLOCK_3-4_SE_RESHAPE/strided_slice/stack_2",
          "op": "Const",
          "attr": {
            "value": {
              "tensor": {
                "dtype": "DT_INT32",
                "tensorShape": {
                  "dim": [
                    {
                      "size": "1"
                    }
                  ]
                }
              }
            },
            "dtype": {
              "type": "DT_INT32"
            }
          }
        },
        {
          "name": "StatefulPartitionedCall/model/BLOCK_3-4_SE_RESHAPE/Reshape/shape/1",
          "op": "Const",
          "attr": {
            "dtype": {
              "type": "DT_INT32"
            },
            "value": {
              "tensor": {
                "dtype": "DT_INT32",
                "tensorShape": {}
              }
            }
          }
        },
        {
          "name": "StatefulPartitionedCall/model/BLOCK_3-4_SE_RESHAPE/Reshape/shape/2",
          "op": "Const",
          "attr": {
            "dtype": {
              "type": "DT_INT32"
            },
            "value": {
              "tensor": {
                "dtype": "DT_INT32",
                "tensorShape": {}
              }
            }
          }
        },
        {
          "name": "StatefulPartitionedCall/model/BLOCK_3-4_SE_RESHAPE/Reshape/shape/3",
          "op": "Const",
          "attr": {
            "dtype": {
              "type": "DT_INT32"
            },
            "value": {
              "tensor": {
                "dtype": "DT_INT32",
                "tensorShape": {}
              }
            }
          }
        },
        {
          "name": "StatefulPartitionedCall/model/BLOCK_3-4_SE_CONV_1/Conv2D/ReadVariableOp",
          "op": "Const",
          "attr": {
            "dtype": {
              "type": "DT_FLOAT"
            },
            "value": {
              "tensor": {
                "dtype": "DT_FLOAT",
                "tensorShape": {
                  "dim": [
                    {
                      "size": "1"
                    },
                    {
                      "size": "1"
                    },
                    {
                      "size": "864"
                    },
                    {
                      "size": "27"
                    }
                  ]
                }
              }
            }
          }
        },
        {
          "name": "StatefulPartitionedCall/model/BLOCK_3-4_SE_CONV_2/Conv2D/ReadVariableOp",
          "op": "Const",
          "attr": {
            "value": {
              "tensor": {
                "dtype": "DT_FLOAT",
                "tensorShape": {
                  "dim": [
                    {
                      "size": "1"
                    },
                    {
                      "size": "1"
                    },
                    {
                      "size": "27"
                    },
                    {
                      "size": "864"
                    }
                  ]
                }
              }
            },
            "dtype": {
              "type": "DT_FLOAT"
            }
          }
        },
        {
          "name": "StatefulPartitionedCall/model/BLOCK_3-4_CONV_3/Conv2D/ReadVariableOp",
          "op": "Const",
          "attr": {
            "value": {
              "tensor": {
                "dtype": "DT_FLOAT",
                "tensorShape": {
                  "dim": [
                    {
                      "size": "1"
                    },
                    {
                      "size": "1"
                    },
                    {
                      "size": "864"
                    },
                    {
                      "size": "108"
                    }
                  ]
                }
              }
            },
            "dtype": {
              "type": "DT_FLOAT"
            }
          }
        },
        {
          "name": "StatefulPartitionedCall/model/BLOCK_3-3_SE_AVG_POOL_1/Mean/reduction_indices",
          "op": "Const",
          "attr": {
            "value": {
              "tensor": {
                "dtype": "DT_INT32",
                "tensorShape": {
                  "dim": [
                    {
                      "size": "2"
                    }
                  ]
                }
              }
            },
            "dtype": {
              "type": "DT_INT32"
            }
          }
        },
        {
          "name": "StatefulPartitionedCall/model/BLOCK_3-3_SE_RESHAPE/strided_slice/stack",
          "op": "Const",
          "attr": {
            "dtype": {
              "type": "DT_INT32"
            },
            "value": {
              "tensor": {
                "dtype": "DT_INT32",
                "tensorShape": {
                  "dim": [
                    {
                      "size": "1"
                    }
                  ]
                }
              }
            }
          }
        },
        {
          "name": "StatefulPartitionedCall/model/BLOCK_3-3_SE_RESHAPE/strided_slice/stack_1",
          "op": "Const",
          "attr": {
            "value": {
              "tensor": {
                "dtype": "DT_INT32",
                "tensorShape": {
                  "dim": [
                    {
                      "size": "1"
                    }
                  ]
                }
              }
            },
            "dtype": {
              "type": "DT_INT32"
            }
          }
        },
        {
          "name": "StatefulPartitionedCall/model/BLOCK_3-3_SE_RESHAPE/strided_slice/stack_2",
          "op": "Const",
          "attr": {
            "dtype": {
              "type": "DT_INT32"
            },
            "value": {
              "tensor": {
                "dtype": "DT_INT32",
                "tensorShape": {
                  "dim": [
                    {
                      "size": "1"
                    }
                  ]
                }
              }
            }
          }
        },
        {
          "name": "StatefulPartitionedCall/model/BLOCK_3-3_SE_RESHAPE/Reshape/shape/1",
          "op": "Const",
          "attr": {
            "dtype": {
              "type": "DT_INT32"
            },
            "value": {
              "tensor": {
                "dtype": "DT_INT32",
                "tensorShape": {}
              }
            }
          }
        },
        {
          "name": "StatefulPartitionedCall/model/BLOCK_3-3_SE_RESHAPE/Reshape/shape/2",
          "op": "Const",
          "attr": {
            "value": {
              "tensor": {
                "dtype": "DT_INT32",
                "tensorShape": {}
              }
            },
            "dtype": {
              "type": "DT_INT32"
            }
          }
        },
        {
          "name": "StatefulPartitionedCall/model/BLOCK_3-3_SE_RESHAPE/Reshape/shape/3",
          "op": "Const",
          "attr": {
            "value": {
              "tensor": {
                "dtype": "DT_INT32",
                "tensorShape": {}
              }
            },
            "dtype": {
              "type": "DT_INT32"
            }
          }
        },
        {
          "name": "StatefulPartitionedCall/model/BLOCK_3-3_SE_CONV_1/Conv2D/ReadVariableOp",
          "op": "Const",
          "attr": {
            "dtype": {
              "type": "DT_FLOAT"
            },
            "value": {
              "tensor": {
                "dtype": "DT_FLOAT",
                "tensorShape": {
                  "dim": [
                    {
                      "size": "1"
                    },
                    {
                      "size": "1"
                    },
                    {
                      "size": "864"
                    },
                    {
                      "size": "27"
                    }
                  ]
                }
              }
            }
          }
        },
        {
          "name": "StatefulPartitionedCall/model/BLOCK_3-3_SE_CONV_2/Conv2D/ReadVariableOp",
          "op": "Const",
          "attr": {
            "value": {
              "tensor": {
                "dtype": "DT_FLOAT",
                "tensorShape": {
                  "dim": [
                    {
                      "size": "1"
                    },
                    {
                      "size": "1"
                    },
                    {
                      "size": "27"
                    },
                    {
                      "size": "864"
                    }
                  ]
                }
              }
            },
            "dtype": {
              "type": "DT_FLOAT"
            }
          }
        },
        {
          "name": "StatefulPartitionedCall/model/BLOCK_3-3_CONV_3/Conv2D/ReadVariableOp",
          "op": "Const",
          "attr": {
            "value": {
              "tensor": {
                "dtype": "DT_FLOAT",
                "tensorShape": {
                  "dim": [
                    {
                      "size": "1"
                    },
                    {
                      "size": "1"
                    },
                    {
                      "size": "864"
                    },
                    {
                      "size": "108"
                    }
                  ]
                }
              }
            },
            "dtype": {
              "type": "DT_FLOAT"
            }
          }
        },
        {
          "name": "StatefulPartitionedCall/model/BLOCK_3-2_SE_AVG_POOL_1/Mean/reduction_indices",
          "op": "Const",
          "attr": {
            "dtype": {
              "type": "DT_INT32"
            },
            "value": {
              "tensor": {
                "dtype": "DT_INT32",
                "tensorShape": {
                  "dim": [
                    {
                      "size": "2"
                    }
                  ]
                }
              }
            }
          }
        },
        {
          "name": "StatefulPartitionedCall/model/BLOCK_3-2_SE_RESHAPE/strided_slice/stack",
          "op": "Const",
          "attr": {
            "dtype": {
              "type": "DT_INT32"
            },
            "value": {
              "tensor": {
                "dtype": "DT_INT32",
                "tensorShape": {
                  "dim": [
                    {
                      "size": "1"
                    }
                  ]
                }
              }
            }
          }
        },
        {
          "name": "StatefulPartitionedCall/model/BLOCK_3-2_SE_RESHAPE/strided_slice/stack_1",
          "op": "Const",
          "attr": {
            "dtype": {
              "type": "DT_INT32"
            },
            "value": {
              "tensor": {
                "dtype": "DT_INT32",
                "tensorShape": {
                  "dim": [
                    {
                      "size": "1"
                    }
                  ]
                }
              }
            }
          }
        },
        {
          "name": "StatefulPartitionedCall/model/BLOCK_3-2_SE_RESHAPE/strided_slice/stack_2",
          "op": "Const",
          "attr": {
            "dtype": {
              "type": "DT_INT32"
            },
            "value": {
              "tensor": {
                "dtype": "DT_INT32",
                "tensorShape": {
                  "dim": [
                    {
                      "size": "1"
                    }
                  ]
                }
              }
            }
          }
        },
        {
          "name": "StatefulPartitionedCall/model/BLOCK_3-2_SE_RESHAPE/Reshape/shape/1",
          "op": "Const",
          "attr": {
            "dtype": {
              "type": "DT_INT32"
            },
            "value": {
              "tensor": {
                "dtype": "DT_INT32",
                "tensorShape": {}
              }
            }
          }
        },
        {
          "name": "StatefulPartitionedCall/model/BLOCK_3-2_SE_RESHAPE/Reshape/shape/2",
          "op": "Const",
          "attr": {
            "dtype": {
              "type": "DT_INT32"
            },
            "value": {
              "tensor": {
                "dtype": "DT_INT32",
                "tensorShape": {}
              }
            }
          }
        },
        {
          "name": "StatefulPartitionedCall/model/BLOCK_3-2_SE_RESHAPE/Reshape/shape/3",
          "op": "Const",
          "attr": {
            "value": {
              "tensor": {
                "dtype": "DT_INT32",
                "tensorShape": {}
              }
            },
            "dtype": {
              "type": "DT_INT32"
            }
          }
        },
        {
          "name": "StatefulPartitionedCall/model/BLOCK_3-2_SE_CONV_1/Conv2D/ReadVariableOp",
          "op": "Const",
          "attr": {
            "dtype": {
              "type": "DT_FLOAT"
            },
            "value": {
              "tensor": {
                "dtype": "DT_FLOAT",
                "tensorShape": {
                  "dim": [
                    {
                      "size": "1"
                    },
                    {
                      "size": "1"
                    },
                    {
                      "size": "864"
                    },
                    {
                      "size": "27"
                    }
                  ]
                }
              }
            }
          }
        },
        {
          "name": "StatefulPartitionedCall/model/BLOCK_3-2_SE_CONV_2/Conv2D/ReadVariableOp",
          "op": "Const",
          "attr": {
            "value": {
              "tensor": {
                "dtype": "DT_FLOAT",
                "tensorShape": {
                  "dim": [
                    {
                      "size": "1"
                    },
                    {
                      "size": "1"
                    },
                    {
                      "size": "27"
                    },
                    {
                      "size": "864"
                    }
                  ]
                }
              }
            },
            "dtype": {
              "type": "DT_FLOAT"
            }
          }
        },
        {
          "name": "StatefulPartitionedCall/model/BLOCK_3-2_CONV_3/Conv2D/ReadVariableOp",
          "op": "Const",
          "attr": {
            "value": {
              "tensor": {
                "dtype": "DT_FLOAT",
                "tensorShape": {
                  "dim": [
                    {
                      "size": "1"
                    },
                    {
                      "size": "1"
                    },
                    {
                      "size": "864"
                    },
                    {
                      "size": "108"
                    }
                  ]
                }
              }
            },
            "dtype": {
              "type": "DT_FLOAT"
            }
          }
        },
        {
          "name": "StatefulPartitionedCall/model/BLOCK_2-4_SE_AVG_POOL_1/Mean/reduction_indices",
          "op": "Const",
          "attr": {
            "dtype": {
              "type": "DT_INT32"
            },
            "value": {
              "tensor": {
                "dtype": "DT_INT32",
                "tensorShape": {
                  "dim": [
                    {
                      "size": "2"
                    }
                  ]
                }
              }
            }
          }
        },
        {
          "name": "StatefulPartitionedCall/model/BLOCK_2-4_SE_RESHAPE/strided_slice/stack",
          "op": "Const",
          "attr": {
            "dtype": {
              "type": "DT_INT32"
            },
            "value": {
              "tensor": {
                "dtype": "DT_INT32",
                "tensorShape": {
                  "dim": [
                    {
                      "size": "1"
                    }
                  ]
                }
              }
            }
          }
        },
        {
          "name": "StatefulPartitionedCall/model/BLOCK_2-4_SE_RESHAPE/strided_slice/stack_1",
          "op": "Const",
          "attr": {
            "value": {
              "tensor": {
                "dtype": "DT_INT32",
                "tensorShape": {
                  "dim": [
                    {
                      "size": "1"
                    }
                  ]
                }
              }
            },
            "dtype": {
              "type": "DT_INT32"
            }
          }
        },
        {
          "name": "StatefulPartitionedCall/model/BLOCK_2-4_SE_RESHAPE/strided_slice/stack_2",
          "op": "Const",
          "attr": {
            "dtype": {
              "type": "DT_INT32"
            },
            "value": {
              "tensor": {
                "dtype": "DT_INT32",
                "tensorShape": {
                  "dim": [
                    {
                      "size": "1"
                    }
                  ]
                }
              }
            }
          }
        },
        {
          "name": "StatefulPartitionedCall/model/BLOCK_2-4_SE_RESHAPE/Reshape/shape/1",
          "op": "Const",
          "attr": {
            "dtype": {
              "type": "DT_INT32"
            },
            "value": {
              "tensor": {
                "dtype": "DT_INT32",
                "tensorShape": {}
              }
            }
          }
        },
        {
          "name": "StatefulPartitionedCall/model/BLOCK_2-4_SE_RESHAPE/Reshape/shape/2",
          "op": "Const",
          "attr": {
            "value": {
              "tensor": {
                "dtype": "DT_INT32",
                "tensorShape": {}
              }
            },
            "dtype": {
              "type": "DT_INT32"
            }
          }
        },
        {
          "name": "StatefulPartitionedCall/model/BLOCK_2-4_SE_RESHAPE/Reshape/shape/3",
          "op": "Const",
          "attr": {
            "dtype": {
              "type": "DT_INT32"
            },
            "value": {
              "tensor": {
                "dtype": "DT_INT32",
                "tensorShape": {}
              }
            }
          }
        },
        {
          "name": "StatefulPartitionedCall/model/BLOCK_2-4_SE_CONV_1/Conv2D/ReadVariableOp",
          "op": "Const",
          "attr": {
            "dtype": {
              "type": "DT_FLOAT"
            },
            "value": {
              "tensor": {
                "dtype": "DT_FLOAT",
                "tensorShape": {
                  "dim": [
                    {
                      "size": "1"
                    },
                    {
                      "size": "1"
                    },
                    {
                      "size": "288"
                    },
                    {
                      "size": "18"
                    }
                  ]
                }
              }
            }
          }
        },
        {
          "name": "StatefulPartitionedCall/model/BLOCK_2-4_SE_CONV_2/Conv2D/ReadVariableOp",
          "op": "Const",
          "attr": {
            "dtype": {
              "type": "DT_FLOAT"
            },
            "value": {
              "tensor": {
                "dtype": "DT_FLOAT",
                "tensorShape": {
                  "dim": [
                    {
                      "size": "1"
                    },
                    {
                      "size": "1"
                    },
                    {
                      "size": "18"
                    },
                    {
                      "size": "288"
                    }
                  ]
                }
              }
            }
          }
        },
        {
          "name": "StatefulPartitionedCall/model/BLOCK_2-4_CONV_3/Conv2D/ReadVariableOp",
          "op": "Const",
          "attr": {
            "dtype": {
              "type": "DT_FLOAT"
            },
            "value": {
              "tensor": {
                "dtype": "DT_FLOAT",
                "tensorShape": {
                  "dim": [
                    {
                      "size": "1"
                    },
                    {
                      "size": "1"
                    },
                    {
                      "size": "288"
                    },
                    {
                      "size": "72"
                    }
                  ]
                }
              }
            }
          }
        },
        {
          "name": "StatefulPartitionedCall/model/BLOCK_2-3_SE_AVG_POOL_1/Mean/reduction_indices",
          "op": "Const",
          "attr": {
            "value": {
              "tensor": {
                "dtype": "DT_INT32",
                "tensorShape": {
                  "dim": [
                    {
                      "size": "2"
                    }
                  ]
                }
              }
            },
            "dtype": {
              "type": "DT_INT32"
            }
          }
        },
        {
          "name": "StatefulPartitionedCall/model/BLOCK_2-3_SE_RESHAPE/strided_slice/stack",
          "op": "Const",
          "attr": {
            "value": {
              "tensor": {
                "dtype": "DT_INT32",
                "tensorShape": {
                  "dim": [
                    {
                      "size": "1"
                    }
                  ]
                }
              }
            },
            "dtype": {
              "type": "DT_INT32"
            }
          }
        },
        {
          "name": "StatefulPartitionedCall/model/BLOCK_2-3_SE_RESHAPE/strided_slice/stack_1",
          "op": "Const",
          "attr": {
            "dtype": {
              "type": "DT_INT32"
            },
            "value": {
              "tensor": {
                "dtype": "DT_INT32",
                "tensorShape": {
                  "dim": [
                    {
                      "size": "1"
                    }
                  ]
                }
              }
            }
          }
        },
        {
          "name": "StatefulPartitionedCall/model/BLOCK_2-3_SE_RESHAPE/strided_slice/stack_2",
          "op": "Const",
          "attr": {
            "value": {
              "tensor": {
                "dtype": "DT_INT32",
                "tensorShape": {
                  "dim": [
                    {
                      "size": "1"
                    }
                  ]
                }
              }
            },
            "dtype": {
              "type": "DT_INT32"
            }
          }
        },
        {
          "name": "StatefulPartitionedCall/model/BLOCK_2-3_SE_RESHAPE/Reshape/shape/1",
          "op": "Const",
          "attr": {
            "value": {
              "tensor": {
                "dtype": "DT_INT32",
                "tensorShape": {}
              }
            },
            "dtype": {
              "type": "DT_INT32"
            }
          }
        },
        {
          "name": "StatefulPartitionedCall/model/BLOCK_2-3_SE_RESHAPE/Reshape/shape/2",
          "op": "Const",
          "attr": {
            "value": {
              "tensor": {
                "dtype": "DT_INT32",
                "tensorShape": {}
              }
            },
            "dtype": {
              "type": "DT_INT32"
            }
          }
        },
        {
          "name": "StatefulPartitionedCall/model/BLOCK_2-3_SE_RESHAPE/Reshape/shape/3",
          "op": "Const",
          "attr": {
            "dtype": {
              "type": "DT_INT32"
            },
            "value": {
              "tensor": {
                "dtype": "DT_INT32",
                "tensorShape": {}
              }
            }
          }
        },
        {
          "name": "StatefulPartitionedCall/model/BLOCK_2-3_SE_CONV_1/Conv2D/ReadVariableOp",
          "op": "Const",
          "attr": {
            "value": {
              "tensor": {
                "dtype": "DT_FLOAT",
                "tensorShape": {
                  "dim": [
                    {
                      "size": "1"
                    },
                    {
                      "size": "1"
                    },
                    {
                      "size": "288"
                    },
                    {
                      "size": "18"
                    }
                  ]
                }
              }
            },
            "dtype": {
              "type": "DT_FLOAT"
            }
          }
        },
        {
          "name": "StatefulPartitionedCall/model/BLOCK_2-3_SE_CONV_2/Conv2D/ReadVariableOp",
          "op": "Const",
          "attr": {
            "dtype": {
              "type": "DT_FLOAT"
            },
            "value": {
              "tensor": {
                "dtype": "DT_FLOAT",
                "tensorShape": {
                  "dim": [
                    {
                      "size": "1"
                    },
                    {
                      "size": "1"
                    },
                    {
                      "size": "18"
                    },
                    {
                      "size": "288"
                    }
                  ]
                }
              }
            }
          }
        },
        {
          "name": "StatefulPartitionedCall/model/BLOCK_2-3_CONV_3/Conv2D/ReadVariableOp",
          "op": "Const",
          "attr": {
            "dtype": {
              "type": "DT_FLOAT"
            },
            "value": {
              "tensor": {
                "dtype": "DT_FLOAT",
                "tensorShape": {
                  "dim": [
                    {
                      "size": "1"
                    },
                    {
                      "size": "1"
                    },
                    {
                      "size": "288"
                    },
                    {
                      "size": "72"
                    }
                  ]
                }
              }
            }
          }
        },
        {
          "name": "StatefulPartitionedCall/model/BLOCK_2-2_SE_AVG_POOL_1/Mean/reduction_indices",
          "op": "Const",
          "attr": {
            "value": {
              "tensor": {
                "dtype": "DT_INT32",
                "tensorShape": {
                  "dim": [
                    {
                      "size": "2"
                    }
                  ]
                }
              }
            },
            "dtype": {
              "type": "DT_INT32"
            }
          }
        },
        {
          "name": "StatefulPartitionedCall/model/BLOCK_2-2_SE_RESHAPE/strided_slice/stack",
          "op": "Const",
          "attr": {
            "value": {
              "tensor": {
                "dtype": "DT_INT32",
                "tensorShape": {
                  "dim": [
                    {
                      "size": "1"
                    }
                  ]
                }
              }
            },
            "dtype": {
              "type": "DT_INT32"
            }
          }
        },
        {
          "name": "StatefulPartitionedCall/model/BLOCK_2-2_SE_RESHAPE/strided_slice/stack_1",
          "op": "Const",
          "attr": {
            "value": {
              "tensor": {
                "dtype": "DT_INT32",
                "tensorShape": {
                  "dim": [
                    {
                      "size": "1"
                    }
                  ]
                }
              }
            },
            "dtype": {
              "type": "DT_INT32"
            }
          }
        },
        {
          "name": "StatefulPartitionedCall/model/BLOCK_2-2_SE_RESHAPE/strided_slice/stack_2",
          "op": "Const",
          "attr": {
            "dtype": {
              "type": "DT_INT32"
            },
            "value": {
              "tensor": {
                "dtype": "DT_INT32",
                "tensorShape": {
                  "dim": [
                    {
                      "size": "1"
                    }
                  ]
                }
              }
            }
          }
        },
        {
          "name": "StatefulPartitionedCall/model/BLOCK_2-2_SE_RESHAPE/Reshape/shape/1",
          "op": "Const",
          "attr": {
            "dtype": {
              "type": "DT_INT32"
            },
            "value": {
              "tensor": {
                "dtype": "DT_INT32",
                "tensorShape": {}
              }
            }
          }
        },
        {
          "name": "StatefulPartitionedCall/model/BLOCK_2-2_SE_RESHAPE/Reshape/shape/2",
          "op": "Const",
          "attr": {
            "value": {
              "tensor": {
                "dtype": "DT_INT32",
                "tensorShape": {}
              }
            },
            "dtype": {
              "type": "DT_INT32"
            }
          }
        },
        {
          "name": "StatefulPartitionedCall/model/BLOCK_2-2_SE_RESHAPE/Reshape/shape/3",
          "op": "Const",
          "attr": {
            "dtype": {
              "type": "DT_INT32"
            },
            "value": {
              "tensor": {
                "dtype": "DT_INT32",
                "tensorShape": {}
              }
            }
          }
        },
        {
          "name": "StatefulPartitionedCall/model/BLOCK_2-2_SE_CONV_1/Conv2D/ReadVariableOp",
          "op": "Const",
          "attr": {
            "dtype": {
              "type": "DT_FLOAT"
            },
            "value": {
              "tensor": {
                "dtype": "DT_FLOAT",
                "tensorShape": {
                  "dim": [
                    {
                      "size": "1"
                    },
                    {
                      "size": "1"
                    },
                    {
                      "size": "288"
                    },
                    {
                      "size": "18"
                    }
                  ]
                }
              }
            }
          }
        },
        {
          "name": "StatefulPartitionedCall/model/BLOCK_2-2_SE_CONV_2/Conv2D/ReadVariableOp",
          "op": "Const",
          "attr": {
            "dtype": {
              "type": "DT_FLOAT"
            },
            "value": {
              "tensor": {
                "dtype": "DT_FLOAT",
                "tensorShape": {
                  "dim": [
                    {
                      "size": "1"
                    },
                    {
                      "size": "1"
                    },
                    {
                      "size": "18"
                    },
                    {
                      "size": "288"
                    }
                  ]
                }
              }
            }
          }
        },
        {
          "name": "StatefulPartitionedCall/model/BLOCK_2-2_CONV_3/Conv2D/ReadVariableOp",
          "op": "Const",
          "attr": {
            "value": {
              "tensor": {
                "dtype": "DT_FLOAT",
                "tensorShape": {
                  "dim": [
                    {
                      "size": "1"
                    },
                    {
                      "size": "1"
                    },
                    {
                      "size": "288"
                    },
                    {
                      "size": "72"
                    }
                  ]
                }
              }
            },
            "dtype": {
              "type": "DT_FLOAT"
            }
          }
        },
        {
          "name": "StatefulPartitionedCall/model/BLOCK_1-3_CONV_3/Conv2D/ReadVariableOp",
          "op": "Const",
          "attr": {
            "value": {
              "tensor": {
                "dtype": "DT_FLOAT",
                "tensorShape": {
                  "dim": [
                    {
                      "size": "1"
                    },
                    {
                      "size": "1"
                    },
                    {
                      "size": "72"
                    },
                    {
                      "size": "36"
                    }
                  ]
                }
              }
            },
            "dtype": {
              "type": "DT_FLOAT"
            }
          }
        },
        {
          "name": "StatefulPartitionedCall/model/BLOCK_1-2_CONV_3/Conv2D/ReadVariableOp",
          "op": "Const",
          "attr": {
            "dtype": {
              "type": "DT_FLOAT"
            },
            "value": {
              "tensor": {
                "dtype": "DT_FLOAT",
                "tensorShape": {
                  "dim": [
                    {
                      "size": "1"
                    },
                    {
                      "size": "1"
                    },
                    {
                      "size": "72"
                    },
                    {
                      "size": "36"
                    }
                  ]
                }
              }
            }
          }
        },
        {
          "name": "StatefulPartitionedCall/model/MEL_SPEC1/Tensordot/Const",
          "op": "Const",
          "attr": {
            "dtype": {
              "type": "DT_INT32"
            },
            "value": {
              "tensor": {
                "dtype": "DT_INT32",
                "tensorShape": {
                  "dim": [
                    {
                      "size": "1"
                    }
                  ]
                }
              }
            }
          }
        },
        {
          "name": "StatefulPartitionedCall/model/MEL_SPEC1/Tensordot/axes",
          "op": "Const",
          "attr": {
            "dtype": {
              "type": "DT_INT32"
            },
            "value": {
              "tensor": {
                "dtype": "DT_INT32",
                "tensorShape": {
                  "dim": [
                    {
                      "size": "1"
                    }
                  ]
                }
              }
            }
          }
        },
        {
          "name": "StatefulPartitionedCall/model/MEL_SPEC1/Tensordot/GatherV2_1/axis",
          "op": "Const",
          "attr": {
            "value": {
              "tensor": {
                "dtype": "DT_INT32",
                "tensorShape": {}
              }
            },
            "dtype": {
              "type": "DT_INT32"
            }
          }
        },
        {
          "name": "StatefulPartitionedCall/model/MEL_SPEC1/Tensordot/Const_1",
          "op": "Const",
          "attr": {
            "dtype": {
              "type": "DT_INT32"
            },
            "value": {
              "tensor": {
                "dtype": "DT_INT32",
                "tensorShape": {
                  "dim": [
                    {
                      "size": "1"
                    }
                  ]
                }
              }
            }
          }
        },
        {
          "name": "unknown",
          "op": "Const",
          "attr": {
            "dtype": {
              "type": "DT_FLOAT"
            },
            "value": {
              "tensor": {
                "dtype": "DT_FLOAT",
                "tensorShape": {
                  "dim": [
                    {
                      "size": "1025"
                    },
                    {
                      "size": "96"
                    }
                  ]
                }
              }
            }
          }
        },
        {
          "name": "StatefulPartitionedCall/model/MEL_SPEC1/stft/frame/zeros_like",
          "op": "Const",
          "attr": {
            "dtype": {
              "type": "DT_INT32"
            },
            "value": {
              "tensor": {
                "dtype": "DT_INT32",
                "tensorShape": {
                  "dim": [
                    {
                      "size": "2"
                    }
                  ]
                }
              }
            }
          }
        },
        {
          "name": "StatefulPartitionedCall/model/MEL_SPEC1/stft/frame/mul/y",
          "op": "Const",
          "attr": {
            "dtype": {
              "type": "DT_INT32"
            },
            "value": {
              "tensor": {
                "dtype": "DT_INT32",
                "tensorShape": {}
              }
            }
          }
        },
        {
          "name": "StatefulPartitionedCall/model/MEL_SPEC1/stft/frame/concat/axis",
          "op": "Const",
          "attr": {
            "value": {
              "tensor": {
                "dtype": "DT_INT32",
                "tensorShape": {}
              }
            },
            "dtype": {
              "type": "DT_INT32"
            }
          }
        },
        {
          "name": "StatefulPartitionedCall/model/MEL_SPEC1/stft/frame/ones_like",
          "op": "Const",
          "attr": {
            "value": {
              "tensor": {
                "dtype": "DT_INT32",
                "tensorShape": {
                  "dim": [
                    {
                      "size": "2"
                    }
                  ]
                }
              }
            },
            "dtype": {
              "type": "DT_INT32"
            }
          }
        },
        {
          "name": "StatefulPartitionedCall/model/MEL_SPEC1/stft/frame/floordiv_3/y",
          "op": "Const",
          "attr": {
            "dtype": {
              "type": "DT_INT32"
            },
            "value": {
              "tensor": {
                "dtype": "DT_INT32",
                "tensorShape": {}
              }
            }
          }
        },
        {
          "name": "StatefulPartitionedCall/model/MEL_SPEC1/stft/frame/concat_1/values_1/1",
          "op": "Const",
          "attr": {
            "value": {
              "tensor": {
                "dtype": "DT_INT32",
                "tensorShape": {}
              }
            },
            "dtype": {
              "type": "DT_INT32"
            }
          }
        },
        {
          "name": "StatefulPartitionedCall/model/MEL_SPEC1/stft/frame/concat_1/axis",
          "op": "Const",
          "attr": {
            "dtype": {
              "type": "DT_INT32"
            },
            "value": {
              "tensor": {
                "dtype": "DT_INT32",
                "tensorShape": {}
              }
            }
          }
        },
        {
          "name": "StatefulPartitionedCall/model/MEL_SPEC1/stft/frame/range_1/start",
          "op": "Const",
          "attr": {
            "value": {
              "tensor": {
                "dtype": "DT_INT32",
                "tensorShape": {}
              }
            },
            "dtype": {
              "type": "DT_INT32"
            }
          }
        },
        {
          "name": "StatefulPartitionedCall/model/MEL_SPEC1/stft/frame/range_1/delta",
          "op": "Const",
          "attr": {
            "value": {
              "tensor": {
                "dtype": "DT_INT32",
                "tensorShape": {}
              }
            },
            "dtype": {
              "type": "DT_INT32"
            }
          }
        },
        {
          "name": "StatefulPartitionedCall/model/MEL_SPEC1/stft/frame/floordiv_2",
          "op": "Const",
          "attr": {
            "value": {
              "tensor": {
                "dtype": "DT_INT32",
                "tensorShape": {}
              }
            },
            "dtype": {
              "type": "DT_INT32"
            }
          }
        },
        {
          "name": "StatefulPartitionedCall/model/MEL_SPEC1/stft/frame/Reshape_2/shape/1",
          "op": "Const",
          "attr": {
            "dtype": {
              "type": "DT_INT32"
            },
            "value": {
              "tensor": {
                "dtype": "DT_INT32",
                "tensorShape": {}
              }
            }
          }
        },
        {
          "name": "StatefulPartitionedCall/model/MEL_SPEC1/stft/frame/Reshape_3",
          "op": "Const",
          "attr": {
            "dtype": {
              "type": "DT_INT32"
            },
            "value": {
              "tensor": {
                "dtype": "DT_INT32",
                "tensorShape": {
                  "dim": [
                    {
                      "size": "1"
                    },
                    {
                      "size": "1024"
                    }
                  ]
                }
              }
            }
          }
        },
        {
          "name": "StatefulPartitionedCall/model/MEL_SPEC1/stft/frame/strided_slice",
          "op": "Const",
          "attr": {
            "dtype": {
              "type": "DT_INT32"
            },
            "value": {
              "tensor": {
                "dtype": "DT_INT32",
                "tensorShape": {}
              }
            }
          }
        },
        {
          "name": "StatefulPartitionedCall/model/MEL_SPEC1/stft/frame/Maximum/x",
          "op": "Const",
          "attr": {
            "dtype": {
              "type": "DT_INT32"
            },
            "value": {
              "tensor": {
                "dtype": "DT_INT32",
                "tensorShape": {}
              }
            }
          }
        },
        {
          "name": "StatefulPartitionedCall/model/MEL_SPEC1/stft/frame/add/x",
          "op": "Const",
          "attr": {
            "value": {
              "tensor": {
                "dtype": "DT_INT32",
                "tensorShape": {}
              }
            },
            "dtype": {
              "type": "DT_INT32"
            }
          }
        },
        {
          "name": "StatefulPartitionedCall/model/MEL_SPEC1/stft/frame/Reshape/shape_1",
          "op": "Const",
          "attr": {
            "value": {
              "tensor": {
                "dtype": "DT_INT32",
                "tensorShape": {
                  "dim": [
                    {}
                  ]
                }
              }
            },
            "dtype": {
              "type": "DT_INT32"
            }
          }
        },
        {
          "name": "StatefulPartitionedCall/model/MEL_SPEC1/stft/frame_step",
          "op": "Const",
          "attr": {
            "value": {
              "tensor": {
                "dtype": "DT_INT32",
                "tensorShape": {}
              }
            },
            "dtype": {
              "type": "DT_INT32"
            }
          }
        },
        {
          "name": "StatefulPartitionedCall/model/MEL_SPEC1/stft/frame_length",
          "op": "Const",
          "attr": {
            "dtype": {
              "type": "DT_INT32"
            },
            "value": {
              "tensor": {
                "dtype": "DT_INT32",
                "tensorShape": {}
              }
            }
          }
        },
        {
          "name": "StatefulPartitionedCall/model/MEL_SPEC1/Min/reduction_indices",
          "op": "Const",
          "attr": {
            "dtype": {
              "type": "DT_INT32"
            },
            "value": {
              "tensor": {
                "dtype": "DT_INT32",
                "tensorShape": {}
              }
            }
          }
        },
        {
          "name": "StatefulPartitionedCall/model/MEL_SPEC1/Max/reduction_indices",
          "op": "Const",
          "attr": {
            "dtype": {
              "type": "DT_INT32"
            },
            "value": {
              "tensor": {
                "dtype": "DT_INT32",
                "tensorShape": {}
              }
            }
          }
        },
        {
          "name": "StatefulPartitionedCall/model/MEL_SPEC1/add/y",
          "op": "Const",
          "attr": {
            "value": {
              "tensor": {
                "dtype": "DT_FLOAT",
                "tensorShape": {}
              }
            },
            "dtype": {
              "type": "DT_FLOAT"
            }
          }
        },
        {
          "name": "StatefulPartitionedCall/model/MEL_SPEC1/Sub_1/y",
          "op": "Const",
          "attr": {
            "dtype": {
              "type": "DT_FLOAT"
            },
            "value": {
              "tensor": {
                "dtype": "DT_FLOAT",
                "tensorShape": {}
              }
            }
          }
        },
        {
          "name": "StatefulPartitionedCall/model/MEL_SPEC1/Mul/y",
          "op": "Const",
          "attr": {
            "dtype": {
              "type": "DT_FLOAT"
            },
            "value": {
              "tensor": {
                "dtype": "DT_FLOAT",
                "tensorShape": {}
              }
            }
          }
        },
        {
          "name": "StatefulPartitionedCall/model/MEL_SPEC1/stft/frame/packed",
          "op": "Const",
          "attr": {
            "value": {
              "tensor": {
                "dtype": "DT_INT32",
                "tensorShape": {
                  "dim": [
                    {
                      "size": "3"
                    }
                  ]
                }
              }
            },
            "dtype": {
              "type": "DT_INT32"
            }
          }
        },
        {
          "name": "StatefulPartitionedCall/model/MEL_SPEC1/stft/frame/split/split_dim",
          "op": "Const",
          "attr": {
            "value": {
              "tensor": {
                "dtype": "DT_INT32",
                "tensorShape": {}
              }
            },
            "dtype": {
              "type": "DT_INT32"
            }
          }
        },
        {
          "name": "StatefulPartitionedCall/model/MEL_SPEC1/stft/frame/concat_2/axis",
          "op": "Const",
          "attr": {
            "dtype": {
              "type": "DT_INT32"
            },
            "value": {
              "tensor": {
                "dtype": "DT_INT32",
                "tensorShape": {}
              }
            }
          }
        },
        {
          "name": "StatefulPartitionedCall/model/MEL_SPEC1/stft/hann_window/sub_2",
          "op": "Const",
          "attr": {
            "value": {
              "tensor": {
                "dtype": "DT_FLOAT",
                "tensorShape": {
                  "dim": [
                    {
                      "size": "2048"
                    }
                  ]
                }
              }
            },
            "dtype": {
              "type": "DT_FLOAT"
            }
          }
        },
        {
          "name": "StatefulPartitionedCall/model/MEL_SPEC1/stft/rfft/fft_length",
          "op": "Const",
          "attr": {
            "dtype": {
              "type": "DT_INT32"
            },
            "value": {
              "tensor": {
                "dtype": "DT_INT32",
                "tensorShape": {
                  "dim": [
                    {
                      "size": "1"
                    }
                  ]
                }
              }
            }
          }
        },
        {
          "name": "StatefulPartitionedCall/model/MEL_SPEC1/Tensordot/free",
          "op": "Const",
          "attr": {
            "dtype": {
              "type": "DT_INT32"
            },
            "value": {
              "tensor": {
                "dtype": "DT_INT32",
                "tensorShape": {
                  "dim": [
                    {
                      "size": "2"
                    }
                  ]
                }
              }
            }
          }
        },
        {
          "name": "StatefulPartitionedCall/model/MEL_SPEC1/Tensordot/GatherV2/axis",
          "op": "Const",
          "attr": {
            "dtype": {
              "type": "DT_INT32"
            },
            "value": {
              "tensor": {
                "dtype": "DT_INT32",
                "tensorShape": {}
              }
            }
          }
        },
        {
          "name": "StatefulPartitionedCall/model/MEL_SPEC1/Tensordot/Const_2",
          "op": "Const",
          "attr": {
            "value": {
              "tensor": {
                "dtype": "DT_INT32",
                "tensorShape": {
                  "dim": [
                    {
                      "size": "1"
                    }
                  ]
                }
              }
            },
            "dtype": {
              "type": "DT_INT32"
            }
          }
        },
        {
          "name": "StatefulPartitionedCall/model/MEL_SPEC1/Tensordot/concat_1/axis",
          "op": "Const",
          "attr": {
            "dtype": {
              "type": "DT_INT32"
            },
            "value": {
              "tensor": {
                "dtype": "DT_INT32",
                "tensorShape": {}
              }
            }
          }
        },
        {
          "name": "StatefulPartitionedCall/model/MEL_SPEC1/truediv_1",
          "op": "Const",
          "attr": {
            "dtype": {
              "type": "DT_FLOAT"
            },
            "value": {
              "tensor": {
                "dtype": "DT_FLOAT",
                "tensorShape": {}
              }
            }
          }
        },
        {
          "name": "StatefulPartitionedCall/model/MEL_SPEC1/ReverseV2/axis",
          "op": "Const",
          "attr": {
            "value": {
              "tensor": {
                "dtype": "DT_INT32",
                "tensorShape": {
                  "dim": [
                    {
                      "size": "1"
                    }
                  ]
                }
              }
            },
            "dtype": {
              "type": "DT_INT32"
            }
          }
        },
        {
          "name": "StatefulPartitionedCall/model/MEL_SPEC1/transpose/perm",
          "op": "Const",
          "attr": {
            "value": {
              "tensor": {
                "dtype": "DT_INT32",
                "tensorShape": {
                  "dim": [
                    {
                      "size": "3"
                    }
                  ]
                }
              }
            },
            "dtype": {
              "type": "DT_INT32"
            }
          }
        },
        {
          "name": "StatefulPartitionedCall/model/MEL_SPEC1/ExpandDims/dim",
          "op": "Const",
          "attr": {
            "value": {
              "tensor": {
                "dtype": "DT_INT32",
                "tensorShape": {}
              }
            },
            "dtype": {
              "type": "DT_INT32"
            }
          }
        },
        {
          "name": "StatefulPartitionedCall/model/MEL_SPEC2/Tensordot/Const",
          "op": "Const",
          "attr": {
            "value": {
              "tensor": {
                "dtype": "DT_INT32",
                "tensorShape": {
                  "dim": [
                    {
                      "size": "1"
                    }
                  ]
                }
              }
            },
            "dtype": {
              "type": "DT_INT32"
            }
          }
        },
        {
          "name": "StatefulPartitionedCall/model/MEL_SPEC2/Tensordot/axes",
          "op": "Const",
          "attr": {
            "dtype": {
              "type": "DT_INT32"
            },
            "value": {
              "tensor": {
                "dtype": "DT_INT32",
                "tensorShape": {
                  "dim": [
                    {
                      "size": "1"
                    }
                  ]
                }
              }
            }
          }
        },
        {
          "name": "StatefulPartitionedCall/model/MEL_SPEC2/Tensordot/GatherV2_1/axis",
          "op": "Const",
          "attr": {
            "dtype": {
              "type": "DT_INT32"
            },
            "value": {
              "tensor": {
                "dtype": "DT_INT32",
                "tensorShape": {}
              }
            }
          }
        },
        {
          "name": "StatefulPartitionedCall/model/MEL_SPEC2/Tensordot/Const_1",
          "op": "Const",
          "attr": {
            "value": {
              "tensor": {
                "dtype": "DT_INT32",
                "tensorShape": {
                  "dim": [
                    {
                      "size": "1"
                    }
                  ]
                }
              }
            },
            "dtype": {
              "type": "DT_INT32"
            }
          }
        },
        {
          "name": "unknown_1",
          "op": "Const",
          "attr": {
            "dtype": {
              "type": "DT_FLOAT"
            },
            "value": {
              "tensor": {
                "dtype": "DT_FLOAT",
                "tensorShape": {
                  "dim": [
                    {
                      "size": "513"
                    },
                    {
                      "size": "96"
                    }
                  ]
                }
              }
            }
          }
        },
        {
          "name": "StatefulPartitionedCall/model/MEL_SPEC2/stft/frame/zeros_like",
          "op": "Const",
          "attr": {
            "value": {
              "tensor": {
                "dtype": "DT_INT32",
                "tensorShape": {
                  "dim": [
                    {
                      "size": "2"
                    }
                  ]
                }
              }
            },
            "dtype": {
              "type": "DT_INT32"
            }
          }
        },
        {
          "name": "StatefulPartitionedCall/model/MEL_SPEC2/stft/frame/mul/y",
          "op": "Const",
          "attr": {
            "value": {
              "tensor": {
                "dtype": "DT_INT32",
                "tensorShape": {}
              }
            },
            "dtype": {
              "type": "DT_INT32"
            }
          }
        },
        {
          "name": "StatefulPartitionedCall/model/MEL_SPEC2/stft/frame/concat/axis",
          "op": "Const",
          "attr": {
            "value": {
              "tensor": {
                "dtype": "DT_INT32",
                "tensorShape": {}
              }
            },
            "dtype": {
              "type": "DT_INT32"
            }
          }
        },
        {
          "name": "StatefulPartitionedCall/model/MEL_SPEC2/stft/frame/ones_like",
          "op": "Const",
          "attr": {
            "dtype": {
              "type": "DT_INT32"
            },
            "value": {
              "tensor": {
                "dtype": "DT_INT32",
                "tensorShape": {
                  "dim": [
                    {
                      "size": "2"
                    }
                  ]
                }
              }
            }
          }
        },
        {
          "name": "StatefulPartitionedCall/model/MEL_SPEC2/stft/frame/floordiv_3/y",
          "op": "Const",
          "attr": {
            "value": {
              "tensor": {
                "dtype": "DT_INT32",
                "tensorShape": {}
              }
            },
            "dtype": {
              "type": "DT_INT32"
            }
          }
        },
        {
          "name": "StatefulPartitionedCall/model/MEL_SPEC2/stft/frame/concat_1/values_1/1",
          "op": "Const",
          "attr": {
            "value": {
              "tensor": {
                "dtype": "DT_INT32",
                "tensorShape": {}
              }
            },
            "dtype": {
              "type": "DT_INT32"
            }
          }
        },
        {
          "name": "StatefulPartitionedCall/model/MEL_SPEC2/stft/frame/concat_1/axis",
          "op": "Const",
          "attr": {
            "dtype": {
              "type": "DT_INT32"
            },
            "value": {
              "tensor": {
                "dtype": "DT_INT32",
                "tensorShape": {}
              }
            }
          }
        },
        {
          "name": "StatefulPartitionedCall/model/MEL_SPEC2/stft/frame/range_1/start",
          "op": "Const",
          "attr": {
            "dtype": {
              "type": "DT_INT32"
            },
            "value": {
              "tensor": {
                "dtype": "DT_INT32",
                "tensorShape": {}
              }
            }
          }
        },
        {
          "name": "StatefulPartitionedCall/model/MEL_SPEC2/stft/frame/range_1/delta",
          "op": "Const",
          "attr": {
            "dtype": {
              "type": "DT_INT32"
            },
            "value": {
              "tensor": {
                "dtype": "DT_INT32",
                "tensorShape": {}
              }
            }
          }
        },
        {
          "name": "StatefulPartitionedCall/model/MEL_SPEC2/stft/frame/floordiv_2",
          "op": "Const",
          "attr": {
            "dtype": {
              "type": "DT_INT32"
            },
            "value": {
              "tensor": {
                "dtype": "DT_INT32",
                "tensorShape": {}
              }
            }
          }
        },
        {
          "name": "StatefulPartitionedCall/model/MEL_SPEC2/stft/frame/Reshape_2/shape/1",
          "op": "Const",
          "attr": {
            "value": {
              "tensor": {
                "dtype": "DT_INT32",
                "tensorShape": {}
              }
            },
            "dtype": {
              "type": "DT_INT32"
            }
          }
        },
        {
          "name": "StatefulPartitionedCall/model/MEL_SPEC2/stft/frame/Reshape_3",
          "op": "Const",
          "attr": {
            "value": {
              "tensor": {
                "dtype": "DT_INT32",
                "tensorShape": {
                  "dim": [
                    {
                      "size": "1"
                    },
                    {
                      "size": "128"
                    }
                  ]
                }
              }
            },
            "dtype": {
              "type": "DT_INT32"
            }
          }
        },
        {
          "name": "StatefulPartitionedCall/model/MEL_SPEC2/stft/frame/strided_slice",
          "op": "Const",
          "attr": {
            "dtype": {
              "type": "DT_INT32"
            },
            "value": {
              "tensor": {
                "dtype": "DT_INT32",
                "tensorShape": {}
              }
            }
          }
        },
        {
          "name": "StatefulPartitionedCall/model/MEL_SPEC2/stft/frame/Maximum/x",
          "op": "Const",
          "attr": {
            "dtype": {
              "type": "DT_INT32"
            },
            "value": {
              "tensor": {
                "dtype": "DT_INT32",
                "tensorShape": {}
              }
            }
          }
        },
        {
          "name": "StatefulPartitionedCall/model/MEL_SPEC2/stft/frame/add/x",
          "op": "Const",
          "attr": {
            "dtype": {
              "type": "DT_INT32"
            },
            "value": {
              "tensor": {
                "dtype": "DT_INT32",
                "tensorShape": {}
              }
            }
          }
        },
        {
          "name": "StatefulPartitionedCall/model/MEL_SPEC2/stft/frame/Reshape/shape_1",
          "op": "Const",
          "attr": {
            "value": {
              "tensor": {
                "dtype": "DT_INT32",
                "tensorShape": {
                  "dim": [
                    {}
                  ]
                }
              }
            },
            "dtype": {
              "type": "DT_INT32"
            }
          }
        },
        {
          "name": "StatefulPartitionedCall/model/MEL_SPEC2/stft/frame_step",
          "op": "Const",
          "attr": {
            "dtype": {
              "type": "DT_INT32"
            },
            "value": {
              "tensor": {
                "dtype": "DT_INT32",
                "tensorShape": {}
              }
            }
          }
        },
        {
          "name": "StatefulPartitionedCall/model/MEL_SPEC2/stft/frame_length",
          "op": "Const",
          "attr": {
            "value": {
              "tensor": {
                "dtype": "DT_INT32",
                "tensorShape": {}
              }
            },
            "dtype": {
              "type": "DT_INT32"
            }
          }
        },
        {
          "name": "StatefulPartitionedCall/model/MEL_SPEC2/Min/reduction_indices",
          "op": "Const",
          "attr": {
            "value": {
              "tensor": {
                "dtype": "DT_INT32",
                "tensorShape": {}
              }
            },
            "dtype": {
              "type": "DT_INT32"
            }
          }
        },
        {
          "name": "StatefulPartitionedCall/model/MEL_SPEC2/Max/reduction_indices",
          "op": "Const",
          "attr": {
            "value": {
              "tensor": {
                "dtype": "DT_INT32",
                "tensorShape": {}
              }
            },
            "dtype": {
              "type": "DT_INT32"
            }
          }
        },
        {
          "name": "StatefulPartitionedCall/model/MEL_SPEC2/add/y",
          "op": "Const",
          "attr": {
            "dtype": {
              "type": "DT_FLOAT"
            },
            "value": {
              "tensor": {
                "dtype": "DT_FLOAT",
                "tensorShape": {}
              }
            }
          }
        },
        {
          "name": "StatefulPartitionedCall/model/MEL_SPEC2/Sub_1/y",
          "op": "Const",
          "attr": {
            "value": {
              "tensor": {
                "dtype": "DT_FLOAT",
                "tensorShape": {}
              }
            },
            "dtype": {
              "type": "DT_FLOAT"
            }
          }
        },
        {
          "name": "StatefulPartitionedCall/model/MEL_SPEC2/Mul/y",
          "op": "Const",
          "attr": {
            "dtype": {
              "type": "DT_FLOAT"
            },
            "value": {
              "tensor": {
                "dtype": "DT_FLOAT",
                "tensorShape": {}
              }
            }
          }
        },
        {
          "name": "StatefulPartitionedCall/model/MEL_SPEC2/stft/frame/packed",
          "op": "Const",
          "attr": {
            "value": {
              "tensor": {
                "dtype": "DT_INT32",
                "tensorShape": {
                  "dim": [
                    {
                      "size": "3"
                    }
                  ]
                }
              }
            },
            "dtype": {
              "type": "DT_INT32"
            }
          }
        },
        {
          "name": "StatefulPartitionedCall/model/MEL_SPEC2/stft/frame/split/split_dim",
          "op": "Const",
          "attr": {
            "value": {
              "tensor": {
                "dtype": "DT_INT32",
                "tensorShape": {}
              }
            },
            "dtype": {
              "type": "DT_INT32"
            }
          }
        },
        {
          "name": "StatefulPartitionedCall/model/MEL_SPEC2/stft/frame/concat_2/axis",
          "op": "Const",
          "attr": {
            "value": {
              "tensor": {
                "dtype": "DT_INT32",
                "tensorShape": {}
              }
            },
            "dtype": {
              "type": "DT_INT32"
            }
          }
        },
        {
          "name": "StatefulPartitionedCall/model/MEL_SPEC2/stft/hann_window/sub_2",
          "op": "Const",
          "attr": {
            "dtype": {
              "type": "DT_FLOAT"
            },
            "value": {
              "tensor": {
                "dtype": "DT_FLOAT",
                "tensorShape": {
                  "dim": [
                    {
                      "size": "1024"
                    }
                  ]
                }
              }
            }
          }
        },
        {
          "name": "StatefulPartitionedCall/model/MEL_SPEC2/stft/rfft/fft_length",
          "op": "Const",
          "attr": {
            "value": {
              "tensor": {
                "dtype": "DT_INT32",
                "tensorShape": {
                  "dim": [
                    {
                      "size": "1"
                    }
                  ]
                }
              }
            },
            "dtype": {
              "type": "DT_INT32"
            }
          }
        },
        {
          "name": "StatefulPartitionedCall/model/MEL_SPEC2/Tensordot/free",
          "op": "Const",
          "attr": {
            "dtype": {
              "type": "DT_INT32"
            },
            "value": {
              "tensor": {
                "dtype": "DT_INT32",
                "tensorShape": {
                  "dim": [
                    {
                      "size": "2"
                    }
                  ]
                }
              }
            }
          }
        },
        {
          "name": "StatefulPartitionedCall/model/MEL_SPEC2/Tensordot/GatherV2/axis",
          "op": "Const",
          "attr": {
            "dtype": {
              "type": "DT_INT32"
            },
            "value": {
              "tensor": {
                "dtype": "DT_INT32",
                "tensorShape": {}
              }
            }
          }
        },
        {
          "name": "StatefulPartitionedCall/model/MEL_SPEC2/Tensordot/Const_2",
          "op": "Const",
          "attr": {
            "value": {
              "tensor": {
                "dtype": "DT_INT32",
                "tensorShape": {
                  "dim": [
                    {
                      "size": "1"
                    }
                  ]
                }
              }
            },
            "dtype": {
              "type": "DT_INT32"
            }
          }
        },
        {
          "name": "StatefulPartitionedCall/model/MEL_SPEC2/Tensordot/concat_1/axis",
          "op": "Const",
          "attr": {
            "dtype": {
              "type": "DT_INT32"
            },
            "value": {
              "tensor": {
                "dtype": "DT_INT32",
                "tensorShape": {}
              }
            }
          }
        },
        {
          "name": "StatefulPartitionedCall/model/MEL_SPEC2/truediv_1",
          "op": "Const",
          "attr": {
            "dtype": {
              "type": "DT_FLOAT"
            },
            "value": {
              "tensor": {
                "dtype": "DT_FLOAT",
                "tensorShape": {}
              }
            }
          }
        },
        {
          "name": "StatefulPartitionedCall/model/MEL_SPEC2/ReverseV2/axis",
          "op": "Const",
          "attr": {
            "dtype": {
              "type": "DT_INT32"
            },
            "value": {
              "tensor": {
                "dtype": "DT_INT32",
                "tensorShape": {
                  "dim": [
                    {
                      "size": "1"
                    }
                  ]
                }
              }
            }
          }
        },
        {
          "name": "StatefulPartitionedCall/model/MEL_SPEC2/transpose/perm",
          "op": "Const",
          "attr": {
            "dtype": {
              "type": "DT_INT32"
            },
            "value": {
              "tensor": {
                "dtype": "DT_INT32",
                "tensorShape": {
                  "dim": [
                    {
                      "size": "3"
                    }
                  ]
                }
              }
            }
          }
        },
        {
          "name": "StatefulPartitionedCall/model/MEL_SPEC2/ExpandDims/dim",
          "op": "Const",
          "attr": {
            "value": {
              "tensor": {
                "dtype": "DT_INT32",
                "tensorShape": {}
              }
            },
            "dtype": {
              "type": "DT_INT32"
            }
          }
        },
        {
          "name": "StatefulPartitionedCall/model/concatenate/concat/axis",
          "op": "Const",
          "attr": {
            "dtype": {
              "type": "DT_INT32"
            },
            "value": {
              "tensor": {
                "dtype": "DT_INT32",
                "tensorShape": {}
              }
            }
          }
        },
        {
          "name": "StatefulPartitionedCall/model/POOL_0_CONCAT/concat/axis",
          "op": "Const",
          "attr": {
            "dtype": {
              "type": "DT_INT32"
            },
            "value": {
              "tensor": {
                "dtype": "DT_INT32",
                "tensorShape": {}
              }
            }
          }
        },
        {
          "name": "StatefulPartitionedCall/model/POOL_0_CONV/Conv2D/ReadVariableOp",
          "op": "Const",
          "attr": {
            "value": {
              "tensor": {
                "dtype": "DT_FLOAT",
                "tensorShape": {
                  "dim": [
                    {
                      "size": "1"
                    },
                    {
                      "size": "1"
                    },
                    {
                      "size": "48"
                    },
                    {
                      "size": "24"
                    }
                  ]
                }
              }
            },
            "dtype": {
              "type": "DT_FLOAT"
            }
          }
        },
        {
          "name": "StatefulPartitionedCall/model/POOL_0_CONV/BiasAdd/ReadVariableOp",
          "op": "Const",
          "attr": {
            "dtype": {
              "type": "DT_FLOAT"
            },
            "value": {
              "tensor": {
                "dtype": "DT_FLOAT",
                "tensorShape": {
                  "dim": [
                    {
                      "size": "24"
                    }
                  ]
                }
              }
            }
          }
        },
        {
          "name": "StatefulPartitionedCall/model/BLOCK_1-1_PAD/Pad/paddings",
          "op": "Const",
          "attr": {
            "dtype": {
              "type": "DT_INT32"
            },
            "value": {
              "tensor": {
                "dtype": "DT_INT32",
                "tensorShape": {
                  "dim": [
                    {
                      "size": "4"
                    },
                    {
                      "size": "2"
                    }
                  ]
                }
              }
            }
          }
        },
        {
          "name": "StatefulPartitionedCall/model/BLOCK_1-1_CONV_3/Conv2D/ReadVariableOp",
          "op": "Const",
          "attr": {
            "value": {
              "tensor": {
                "dtype": "DT_FLOAT",
                "tensorShape": {
                  "dim": [
                    {
                      "size": "1"
                    },
                    {
                      "size": "1"
                    },
                    {
                      "size": "72"
                    },
                    {
                      "size": "36"
                    }
                  ]
                }
              }
            },
            "dtype": {
              "type": "DT_FLOAT"
            }
          }
        },
        {
          "name": "StatefulPartitionedCall/model/BLOCK_2-1_PAD/Pad/paddings",
          "op": "Const",
          "attr": {
            "value": {
              "tensor": {
                "dtype": "DT_INT32",
                "tensorShape": {
                  "dim": [
                    {
                      "size": "4"
                    },
                    {
                      "size": "2"
                    }
                  ]
                }
              }
            },
            "dtype": {
              "type": "DT_INT32"
            }
          }
        },
        {
          "name": "StatefulPartitionedCall/model/BLOCK_2-1_SE_AVG_POOL_1/Mean/reduction_indices",
          "op": "Const",
          "attr": {
            "value": {
              "tensor": {
                "dtype": "DT_INT32",
                "tensorShape": {
                  "dim": [
                    {
                      "size": "2"
                    }
                  ]
                }
              }
            },
            "dtype": {
              "type": "DT_INT32"
            }
          }
        },
        {
          "name": "StatefulPartitionedCall/model/BLOCK_2-1_SE_RESHAPE/strided_slice/stack",
          "op": "Const",
          "attr": {
            "value": {
              "tensor": {
                "dtype": "DT_INT32",
                "tensorShape": {
                  "dim": [
                    {
                      "size": "1"
                    }
                  ]
                }
              }
            },
            "dtype": {
              "type": "DT_INT32"
            }
          }
        },
        {
          "name": "StatefulPartitionedCall/model/BLOCK_2-1_SE_RESHAPE/strided_slice/stack_1",
          "op": "Const",
          "attr": {
            "dtype": {
              "type": "DT_INT32"
            },
            "value": {
              "tensor": {
                "dtype": "DT_INT32",
                "tensorShape": {
                  "dim": [
                    {
                      "size": "1"
                    }
                  ]
                }
              }
            }
          }
        },
        {
          "name": "StatefulPartitionedCall/model/BLOCK_2-1_SE_RESHAPE/strided_slice/stack_2",
          "op": "Const",
          "attr": {
            "dtype": {
              "type": "DT_INT32"
            },
            "value": {
              "tensor": {
                "dtype": "DT_INT32",
                "tensorShape": {
                  "dim": [
                    {
                      "size": "1"
                    }
                  ]
                }
              }
            }
          }
        },
        {
          "name": "StatefulPartitionedCall/model/BLOCK_2-1_SE_RESHAPE/Reshape/shape/1",
          "op": "Const",
          "attr": {
            "dtype": {
              "type": "DT_INT32"
            },
            "value": {
              "tensor": {
                "dtype": "DT_INT32",
                "tensorShape": {}
              }
            }
          }
        },
        {
          "name": "StatefulPartitionedCall/model/BLOCK_2-1_SE_RESHAPE/Reshape/shape/2",
          "op": "Const",
          "attr": {
            "dtype": {
              "type": "DT_INT32"
            },
            "value": {
              "tensor": {
                "dtype": "DT_INT32",
                "tensorShape": {}
              }
            }
          }
        },
        {
          "name": "StatefulPartitionedCall/model/BLOCK_2-1_SE_RESHAPE/Reshape/shape/3",
          "op": "Const",
          "attr": {
            "dtype": {
              "type": "DT_INT32"
            },
            "value": {
              "tensor": {
                "dtype": "DT_INT32",
                "tensorShape": {}
              }
            }
          }
        },
        {
          "name": "StatefulPartitionedCall/model/BLOCK_2-1_SE_CONV_1/Conv2D/ReadVariableOp",
          "op": "Const",
          "attr": {
            "value": {
              "tensor": {
                "dtype": "DT_FLOAT",
                "tensorShape": {
                  "dim": [
                    {
                      "size": "1"
                    },
                    {
                      "size": "1"
                    },
                    {
                      "size": "288"
                    },
                    {
                      "size": "18"
                    }
                  ]
                }
              }
            },
            "dtype": {
              "type": "DT_FLOAT"
            }
          }
        },
        {
          "name": "StatefulPartitionedCall/model/BLOCK_2-1_SE_CONV_2/Conv2D/ReadVariableOp",
          "op": "Const",
          "attr": {
            "dtype": {
              "type": "DT_FLOAT"
            },
            "value": {
              "tensor": {
                "dtype": "DT_FLOAT",
                "tensorShape": {
                  "dim": [
                    {
                      "size": "1"
                    },
                    {
                      "size": "1"
                    },
                    {
                      "size": "18"
                    },
                    {
                      "size": "288"
                    }
                  ]
                }
              }
            }
          }
        },
        {
          "name": "StatefulPartitionedCall/model/BLOCK_2-1_CONV_3/Conv2D/ReadVariableOp",
          "op": "Const",
          "attr": {
            "value": {
              "tensor": {
                "dtype": "DT_FLOAT",
                "tensorShape": {
                  "dim": [
                    {
                      "size": "1"
                    },
                    {
                      "size": "1"
                    },
                    {
                      "size": "288"
                    },
                    {
                      "size": "72"
                    }
                  ]
                }
              }
            },
            "dtype": {
              "type": "DT_FLOAT"
            }
          }
        },
        {
          "name": "StatefulPartitionedCall/model/BLOCK_3-1_PAD/Pad/paddings",
          "op": "Const",
          "attr": {
            "value": {
              "tensor": {
                "dtype": "DT_INT32",
                "tensorShape": {
                  "dim": [
                    {
                      "size": "4"
                    },
                    {
                      "size": "2"
                    }
                  ]
                }
              }
            },
            "dtype": {
              "type": "DT_INT32"
            }
          }
        },
        {
          "name": "StatefulPartitionedCall/model/BLOCK_3-1_SE_AVG_POOL_1/Mean/reduction_indices",
          "op": "Const",
          "attr": {
            "dtype": {
              "type": "DT_INT32"
            },
            "value": {
              "tensor": {
                "dtype": "DT_INT32",
                "tensorShape": {
                  "dim": [
                    {
                      "size": "2"
                    }
                  ]
                }
              }
            }
          }
        },
        {
          "name": "StatefulPartitionedCall/model/BLOCK_3-1_SE_RESHAPE/strided_slice/stack",
          "op": "Const",
          "attr": {
            "dtype": {
              "type": "DT_INT32"
            },
            "value": {
              "tensor": {
                "dtype": "DT_INT32",
                "tensorShape": {
                  "dim": [
                    {
                      "size": "1"
                    }
                  ]
                }
              }
            }
          }
        },
        {
          "name": "StatefulPartitionedCall/model/BLOCK_3-1_SE_RESHAPE/strided_slice/stack_1",
          "op": "Const",
          "attr": {
            "dtype": {
              "type": "DT_INT32"
            },
            "value": {
              "tensor": {
                "dtype": "DT_INT32",
                "tensorShape": {
                  "dim": [
                    {
                      "size": "1"
                    }
                  ]
                }
              }
            }
          }
        },
        {
          "name": "StatefulPartitionedCall/model/BLOCK_3-1_SE_RESHAPE/strided_slice/stack_2",
          "op": "Const",
          "attr": {
            "dtype": {
              "type": "DT_INT32"
            },
            "value": {
              "tensor": {
                "dtype": "DT_INT32",
                "tensorShape": {
                  "dim": [
                    {
                      "size": "1"
                    }
                  ]
                }
              }
            }
          }
        },
        {
          "name": "StatefulPartitionedCall/model/BLOCK_3-1_SE_RESHAPE/Reshape/shape/1",
          "op": "Const",
          "attr": {
            "dtype": {
              "type": "DT_INT32"
            },
            "value": {
              "tensor": {
                "dtype": "DT_INT32",
                "tensorShape": {}
              }
            }
          }
        },
        {
          "name": "StatefulPartitionedCall/model/BLOCK_3-1_SE_RESHAPE/Reshape/shape/2",
          "op": "Const",
          "attr": {
            "dtype": {
              "type": "DT_INT32"
            },
            "value": {
              "tensor": {
                "dtype": "DT_INT32",
                "tensorShape": {}
              }
            }
          }
        },
        {
          "name": "StatefulPartitionedCall/model/BLOCK_3-1_SE_RESHAPE/Reshape/shape/3",
          "op": "Const",
          "attr": {
            "dtype": {
              "type": "DT_INT32"
            },
            "value": {
              "tensor": {
                "dtype": "DT_INT32",
                "tensorShape": {}
              }
            }
          }
        },
        {
          "name": "StatefulPartitionedCall/model/BLOCK_3-1_SE_CONV_1/Conv2D/ReadVariableOp",
          "op": "Const",
          "attr": {
            "dtype": {
              "type": "DT_FLOAT"
            },
            "value": {
              "tensor": {
                "dtype": "DT_FLOAT",
                "tensorShape": {
                  "dim": [
                    {
                      "size": "1"
                    },
                    {
                      "size": "1"
                    },
                    {
                      "size": "864"
                    },
                    {
                      "size": "27"
                    }
                  ]
                }
              }
            }
          }
        },
        {
          "name": "StatefulPartitionedCall/model/BLOCK_3-1_SE_CONV_2/Conv2D/ReadVariableOp",
          "op": "Const",
          "attr": {
            "dtype": {
              "type": "DT_FLOAT"
            },
            "value": {
              "tensor": {
                "dtype": "DT_FLOAT",
                "tensorShape": {
                  "dim": [
                    {
                      "size": "1"
                    },
                    {
                      "size": "1"
                    },
                    {
                      "size": "27"
                    },
                    {
                      "size": "864"
                    }
                  ]
                }
              }
            }
          }
        },
        {
          "name": "StatefulPartitionedCall/model/BLOCK_3-1_CONV_3/Conv2D/ReadVariableOp",
          "op": "Const",
          "attr": {
            "value": {
              "tensor": {
                "dtype": "DT_FLOAT",
                "tensorShape": {
                  "dim": [
                    {
                      "size": "1"
                    },
                    {
                      "size": "1"
                    },
                    {
                      "size": "864"
                    },
                    {
                      "size": "108"
                    }
                  ]
                }
              }
            },
            "dtype": {
              "type": "DT_FLOAT"
            }
          }
        },
        {
          "name": "StatefulPartitionedCall/model/BLOCK_4-1_PAD/Pad/paddings",
          "op": "Const",
          "attr": {
            "dtype": {
              "type": "DT_INT32"
            },
            "value": {
              "tensor": {
                "dtype": "DT_INT32",
                "tensorShape": {
                  "dim": [
                    {
                      "size": "4"
                    },
                    {
                      "size": "2"
                    }
                  ]
                }
              }
            }
          }
        },
        {
          "name": "StatefulPartitionedCall/model/BLOCK_4-1_SE_AVG_POOL_1/Mean/reduction_indices",
          "op": "Const",
          "attr": {
            "dtype": {
              "type": "DT_INT32"
            },
            "value": {
              "tensor": {
                "dtype": "DT_INT32",
                "tensorShape": {
                  "dim": [
                    {
                      "size": "2"
                    }
                  ]
                }
              }
            }
          }
        },
        {
          "name": "StatefulPartitionedCall/model/BLOCK_4-1_SE_RESHAPE/strided_slice/stack",
          "op": "Const",
          "attr": {
            "value": {
              "tensor": {
                "dtype": "DT_INT32",
                "tensorShape": {
                  "dim": [
                    {
                      "size": "1"
                    }
                  ]
                }
              }
            },
            "dtype": {
              "type": "DT_INT32"
            }
          }
        },
        {
          "name": "StatefulPartitionedCall/model/BLOCK_4-1_SE_RESHAPE/strided_slice/stack_1",
          "op": "Const",
          "attr": {
            "dtype": {
              "type": "DT_INT32"
            },
            "value": {
              "tensor": {
                "dtype": "DT_INT32",
                "tensorShape": {
                  "dim": [
                    {
                      "size": "1"
                    }
                  ]
                }
              }
            }
          }
        },
        {
          "name": "StatefulPartitionedCall/model/BLOCK_4-1_SE_RESHAPE/strided_slice/stack_2",
          "op": "Const",
          "attr": {
            "value": {
              "tensor": {
                "dtype": "DT_INT32",
                "tensorShape": {
                  "dim": [
                    {
                      "size": "1"
                    }
                  ]
                }
              }
            },
            "dtype": {
              "type": "DT_INT32"
            }
          }
        },
        {
          "name": "StatefulPartitionedCall/model/BLOCK_4-1_SE_RESHAPE/Reshape/shape/1",
          "op": "Const",
          "attr": {
            "dtype": {
              "type": "DT_INT32"
            },
            "value": {
              "tensor": {
                "dtype": "DT_INT32",
                "tensorShape": {}
              }
            }
          }
        },
        {
          "name": "StatefulPartitionedCall/model/BLOCK_4-1_SE_RESHAPE/Reshape/shape/2",
          "op": "Const",
          "attr": {
            "value": {
              "tensor": {
                "dtype": "DT_INT32",
                "tensorShape": {}
              }
            },
            "dtype": {
              "type": "DT_INT32"
            }
          }
        },
        {
          "name": "StatefulPartitionedCall/model/BLOCK_4-1_SE_RESHAPE/Reshape/shape/3",
          "op": "Const",
          "attr": {
            "dtype": {
              "type": "DT_INT32"
            },
            "value": {
              "tensor": {
                "dtype": "DT_INT32",
                "tensorShape": {}
              }
            }
          }
        },
        {
          "name": "StatefulPartitionedCall/model/BLOCK_4-1_SE_CONV_1/Conv2D/ReadVariableOp",
          "op": "Const",
          "attr": {
            "value": {
              "tensor": {
                "dtype": "DT_FLOAT",
                "tensorShape": {
                  "dim": [
                    {
                      "size": "1"
                    },
                    {
                      "size": "1"
                    },
                    {
                      "size": "1536"
                    },
                    {
                      "size": "48"
                    }
                  ]
                }
              }
            },
            "dtype": {
              "type": "DT_FLOAT"
            }
          }
        },
        {
          "name": "StatefulPartitionedCall/model/BLOCK_4-1_SE_CONV_2/Conv2D/ReadVariableOp",
          "op": "Const",
          "attr": {
            "dtype": {
              "type": "DT_FLOAT"
            },
            "value": {
              "tensor": {
                "dtype": "DT_FLOAT",
                "tensorShape": {
                  "dim": [
                    {
                      "size": "1"
                    },
                    {
                      "size": "1"
                    },
                    {
                      "size": "48"
                    },
                    {
                      "size": "1536"
                    }
                  ]
                }
              }
            }
          }
        },
        {
          "name": "StatefulPartitionedCall/model/BLOCK_4-1_CONV_3/Conv2D/ReadVariableOp",
          "op": "Const",
          "attr": {
            "dtype": {
              "type": "DT_FLOAT"
            },
            "value": {
              "tensor": {
                "dtype": "DT_FLOAT",
                "tensorShape": {
                  "dim": [
                    {
                      "size": "1"
                    },
                    {
                      "size": "1"
                    },
                    {
                      "size": "1536"
                    },
                    {
                      "size": "192"
                    }
                  ]
                }
              }
            }
          }
        },
        {
          "name": "StatefulPartitionedCall/model/GLOBAL_AVG_POOL/Mean/reduction_indices",
          "op": "Const",
          "attr": {
            "dtype": {
              "type": "DT_INT32"
            },
            "value": {
              "tensor": {
                "dtype": "DT_INT32",
                "tensorShape": {
                  "dim": [
                    {
                      "size": "2"
                    }
                  ]
                }
              }
            }
          }
        },
        {
          "name": "StatefulPartitionedCall/model/CLASS_DENSE_LAYER/MatMul/ReadVariableOp",
          "op": "Const",
          "attr": {
            "value": {
              "tensor": {
                "dtype": "DT_FLOAT",
                "tensorShape": {
                  "dim": [
                    {
                      "size": "1024"
                    },
                    {
                      "size": "6522"
                    }
                  ]
                }
              }
            },
            "dtype": {
              "type": "DT_FLOAT"
            }
          }
        },
        {
          "name": "StatefulPartitionedCall/model/CLASS_DENSE_LAYER/BiasAdd/ReadVariableOp",
          "op": "Const",
          "attr": {
            "value": {
              "tensor": {
                "dtype": "DT_FLOAT",
                "tensorShape": {
                  "dim": [
                    {
                      "size": "6522"
                    }
                  ]
                }
              }
            },
            "dtype": {
              "type": "DT_FLOAT"
            }
          }
        },
        {
          "name": "inputs",
          "op": "Placeholder",
          "attr": {
            "shape": {
              "shape": {
                "dim": [
                  {
                    "size": "-1"
                  },
                  {
                    "size": "144000"
                  }
                ]
              }
            },
            "dtype": {
              "type": "DT_FLOAT"
            }
          }
        },
        {
          "name": "StatefulPartitionedCall/model/CONV_0/Conv2D_weights",
          "op": "Const",
          "attr": {
            "value": {
              "tensor": {
                "dtype": "DT_FLOAT",
                "tensorShape": {
                  "dim": [
                    {
                      "size": "4"
                    },
                    {
                      "size": "8"
                    },
                    {
                      "size": "2"
                    },
                    {
                      "size": "24"
                    }
                  ]
                }
              }
            },
            "dtype": {
              "type": "DT_FLOAT"
            }
          }
        },
        {
          "name": "StatefulPartitionedCall/model/BNORM_SPEC_NOQUANT/FusedBatchNormV3/Offset",
          "op": "Const",
          "attr": {
            "dtype": {
              "type": "DT_FLOAT"
            },
            "value": {
              "tensor": {
                "dtype": "DT_FLOAT",
                "tensorShape": {
                  "dim": [
                    {
                      "size": "2"
                    }
                  ]
                }
              }
            }
          }
        },
        {
          "name": "StatefulPartitionedCall/model/CONV_0/Conv2D_bn_offset",
          "op": "Const",
          "attr": {
            "value": {
              "tensor": {
                "dtype": "DT_FLOAT",
                "tensorShape": {
                  "dim": [
                    {
                      "size": "24"
                    }
                  ]
                }
              }
            },
            "dtype": {
              "type": "DT_FLOAT"
            }
          }
        },
        {
          "name": "StatefulPartitionedCall/model/BLOCK_1-1_CONV_1/Conv2D_weights",
          "op": "Const",
          "attr": {
            "value": {
              "tensor": {
                "dtype": "DT_FLOAT",
                "tensorShape": {
                  "dim": [
                    {
                      "size": "1"
                    },
                    {
                      "size": "1"
                    },
                    {
                      "size": "24"
                    },
                    {
                      "size": "72"
                    }
                  ]
                }
              }
            },
            "dtype": {
              "type": "DT_FLOAT"
            }
          }
        },
        {
          "name": "StatefulPartitionedCall/model/BLOCK_1-1_CONV_1/Conv2D_bn_offset",
          "op": "Const",
          "attr": {
            "dtype": {
              "type": "DT_FLOAT"
            },
            "value": {
              "tensor": {
                "dtype": "DT_FLOAT",
                "tensorShape": {
                  "dim": [
                    {
                      "size": "72"
                    }
                  ]
                }
              }
            }
          }
        },
        {
          "name": "StatefulPartitionedCall/model/BLOCK_1-1_CONV_2/depthwise_weights",
          "op": "Const",
          "attr": {
            "dtype": {
              "type": "DT_FLOAT"
            },
            "value": {
              "tensor": {
                "dtype": "DT_FLOAT",
                "tensorShape": {
                  "dim": [
                    {
                      "size": "3"
                    },
                    {
                      "size": "3"
                    },
                    {
                      "size": "72"
                    },
                    {
                      "size": "1"
                    }
                  ]
                }
              }
            }
          }
        },
        {
          "name": "StatefulPartitionedCall/model/BLOCK_1-1_CONV_2/depthwise_bn_offset",
          "op": "Const",
          "attr": {
            "dtype": {
              "type": "DT_FLOAT"
            },
            "value": {
              "tensor": {
                "dtype": "DT_FLOAT",
                "tensorShape": {
                  "dim": [
                    {
                      "size": "72"
                    }
                  ]
                }
              }
            }
          }
        },
        {
          "name": "StatefulPartitionedCall/model/BLOCK_1-2_CONV_1/Conv2D_weights",
          "op": "Const",
          "attr": {
            "dtype": {
              "type": "DT_FLOAT"
            },
            "value": {
              "tensor": {
                "dtype": "DT_FLOAT",
                "tensorShape": {
                  "dim": [
                    {
                      "size": "1"
                    },
                    {
                      "size": "1"
                    },
                    {
                      "size": "36"
                    },
                    {
                      "size": "72"
                    }
                  ]
                }
              }
            }
          }
        },
        {
          "name": "StatefulPartitionedCall/model/BLOCK_1-2_CONV_1/Conv2D_bn_offset",
          "op": "Const",
          "attr": {
            "dtype": {
              "type": "DT_FLOAT"
            },
            "value": {
              "tensor": {
                "dtype": "DT_FLOAT",
                "tensorShape": {
                  "dim": [
                    {
                      "size": "72"
                    }
                  ]
                }
              }
            }
          }
        },
        {
          "name": "StatefulPartitionedCall/model/BLOCK_1-2_CONV_2/depthwise_weights",
          "op": "Const",
          "attr": {
            "value": {
              "tensor": {
                "dtype": "DT_FLOAT",
                "tensorShape": {
                  "dim": [
                    {
                      "size": "3"
                    },
                    {
                      "size": "3"
                    },
                    {
                      "size": "72"
                    },
                    {
                      "size": "1"
                    }
                  ]
                }
              }
            },
            "dtype": {
              "type": "DT_FLOAT"
            }
          }
        },
        {
          "name": "StatefulPartitionedCall/model/BLOCK_1-2_CONV_2/depthwise_bn_offset",
          "op": "Const",
          "attr": {
            "value": {
              "tensor": {
                "dtype": "DT_FLOAT",
                "tensorShape": {
                  "dim": [
                    {
                      "size": "72"
                    }
                  ]
                }
              }
            },
            "dtype": {
              "type": "DT_FLOAT"
            }
          }
        },
        {
          "name": "StatefulPartitionedCall/model/BLOCK_1-3_CONV_1/Conv2D_weights",
          "op": "Const",
          "attr": {
            "dtype": {
              "type": "DT_FLOAT"
            },
            "value": {
              "tensor": {
                "dtype": "DT_FLOAT",
                "tensorShape": {
                  "dim": [
                    {
                      "size": "1"
                    },
                    {
                      "size": "1"
                    },
                    {
                      "size": "36"
                    },
                    {
                      "size": "72"
                    }
                  ]
                }
              }
            }
          }
        },
        {
          "name": "StatefulPartitionedCall/model/BLOCK_1-3_CONV_1/Conv2D_bn_offset",
          "op": "Const",
          "attr": {
            "value": {
              "tensor": {
                "dtype": "DT_FLOAT",
                "tensorShape": {
                  "dim": [
                    {
                      "size": "72"
                    }
                  ]
                }
              }
            },
            "dtype": {
              "type": "DT_FLOAT"
            }
          }
        },
        {
          "name": "StatefulPartitionedCall/model/BLOCK_1-3_CONV_2/depthwise_weights",
          "op": "Const",
          "attr": {
            "dtype": {
              "type": "DT_FLOAT"
            },
            "value": {
              "tensor": {
                "dtype": "DT_FLOAT",
                "tensorShape": {
                  "dim": [
                    {
                      "size": "3"
                    },
                    {
                      "size": "3"
                    },
                    {
                      "size": "72"
                    },
                    {
                      "size": "1"
                    }
                  ]
                }
              }
            }
          }
        },
        {
          "name": "StatefulPartitionedCall/model/BLOCK_1-3_CONV_2/depthwise_bn_offset",
          "op": "Const",
          "attr": {
            "dtype": {
              "type": "DT_FLOAT"
            },
            "value": {
              "tensor": {
                "dtype": "DT_FLOAT",
                "tensorShape": {
                  "dim": [
                    {
                      "size": "72"
                    }
                  ]
                }
              }
            }
          }
        },
        {
          "name": "StatefulPartitionedCall/model/BLOCK_2-1_CONV_1/Conv2D_weights",
          "op": "Const",
          "attr": {
            "value": {
              "tensor": {
                "dtype": "DT_FLOAT",
                "tensorShape": {
                  "dim": [
                    {
                      "size": "1"
                    },
                    {
                      "size": "1"
                    },
                    {
                      "size": "36"
                    },
                    {
                      "size": "288"
                    }
                  ]
                }
              }
            },
            "dtype": {
              "type": "DT_FLOAT"
            }
          }
        },
        {
          "name": "StatefulPartitionedCall/model/BLOCK_2-1_CONV_1/Conv2D_bn_offset",
          "op": "Const",
          "attr": {
            "dtype": {
              "type": "DT_FLOAT"
            },
            "value": {
              "tensor": {
                "dtype": "DT_FLOAT",
                "tensorShape": {
                  "dim": [
                    {
                      "size": "288"
                    }
                  ]
                }
              }
            }
          }
        },
        {
          "name": "StatefulPartitionedCall/model/BLOCK_2-1_CONV_2/depthwise_weights",
          "op": "Const",
          "attr": {
            "value": {
              "tensor": {
                "dtype": "DT_FLOAT",
                "tensorShape": {
                  "dim": [
                    {
                      "size": "3"
                    },
                    {
                      "size": "3"
                    },
                    {
                      "size": "288"
                    },
                    {
                      "size": "1"
                    }
                  ]
                }
              }
            },
            "dtype": {
              "type": "DT_FLOAT"
            }
          }
        },
        {
          "name": "StatefulPartitionedCall/model/BLOCK_2-1_CONV_2/depthwise_bn_offset",
          "op": "Const",
          "attr": {
            "dtype": {
              "type": "DT_FLOAT"
            },
            "value": {
              "tensor": {
                "dtype": "DT_FLOAT",
                "tensorShape": {
                  "dim": [
                    {
                      "size": "288"
                    }
                  ]
                }
              }
            }
          }
        },
        {
          "name": "StatefulPartitionedCall/model/BLOCK_2-2_CONV_1/Conv2D_weights",
          "op": "Const",
          "attr": {
            "dtype": {
              "type": "DT_FLOAT"
            },
            "value": {
              "tensor": {
                "dtype": "DT_FLOAT",
                "tensorShape": {
                  "dim": [
                    {
                      "size": "1"
                    },
                    {
                      "size": "1"
                    },
                    {
                      "size": "72"
                    },
                    {
                      "size": "288"
                    }
                  ]
                }
              }
            }
          }
        },
        {
          "name": "StatefulPartitionedCall/model/BLOCK_2-2_CONV_1/Conv2D_bn_offset",
          "op": "Const",
          "attr": {
            "dtype": {
              "type": "DT_FLOAT"
            },
            "value": {
              "tensor": {
                "dtype": "DT_FLOAT",
                "tensorShape": {
                  "dim": [
                    {
                      "size": "288"
                    }
                  ]
                }
              }
            }
          }
        },
        {
          "name": "StatefulPartitionedCall/model/BLOCK_2-2_CONV_2/depthwise_weights",
          "op": "Const",
          "attr": {
            "dtype": {
              "type": "DT_FLOAT"
            },
            "value": {
              "tensor": {
                "dtype": "DT_FLOAT",
                "tensorShape": {
                  "dim": [
                    {
                      "size": "3"
                    },
                    {
                      "size": "3"
                    },
                    {
                      "size": "288"
                    },
                    {
                      "size": "1"
                    }
                  ]
                }
              }
            }
          }
        },
        {
          "name": "StatefulPartitionedCall/model/BLOCK_2-2_CONV_2/depthwise_bn_offset",
          "op": "Const",
          "attr": {
            "dtype": {
              "type": "DT_FLOAT"
            },
            "value": {
              "tensor": {
                "dtype": "DT_FLOAT",
                "tensorShape": {
                  "dim": [
                    {
                      "size": "288"
                    }
                  ]
                }
              }
            }
          }
        },
        {
          "name": "StatefulPartitionedCall/model/BLOCK_2-3_CONV_1/Conv2D_weights",
          "op": "Const",
          "attr": {
            "dtype": {
              "type": "DT_FLOAT"
            },
            "value": {
              "tensor": {
                "dtype": "DT_FLOAT",
                "tensorShape": {
                  "dim": [
                    {
                      "size": "1"
                    },
                    {
                      "size": "1"
                    },
                    {
                      "size": "72"
                    },
                    {
                      "size": "288"
                    }
                  ]
                }
              }
            }
          }
        },
        {
          "name": "StatefulPartitionedCall/model/BLOCK_2-3_CONV_1/Conv2D_bn_offset",
          "op": "Const",
          "attr": {
            "value": {
              "tensor": {
                "dtype": "DT_FLOAT",
                "tensorShape": {
                  "dim": [
                    {
                      "size": "288"
                    }
                  ]
                }
              }
            },
            "dtype": {
              "type": "DT_FLOAT"
            }
          }
        },
        {
          "name": "StatefulPartitionedCall/model/BLOCK_2-3_CONV_2/depthwise_weights",
          "op": "Const",
          "attr": {
            "value": {
              "tensor": {
                "dtype": "DT_FLOAT",
                "tensorShape": {
                  "dim": [
                    {
                      "size": "3"
                    },
                    {
                      "size": "3"
                    },
                    {
                      "size": "288"
                    },
                    {
                      "size": "1"
                    }
                  ]
                }
              }
            },
            "dtype": {
              "type": "DT_FLOAT"
            }
          }
        },
        {
          "name": "StatefulPartitionedCall/model/BLOCK_2-3_CONV_2/depthwise_bn_offset",
          "op": "Const",
          "attr": {
            "value": {
              "tensor": {
                "dtype": "DT_FLOAT",
                "tensorShape": {
                  "dim": [
                    {
                      "size": "288"
                    }
                  ]
                }
              }
            },
            "dtype": {
              "type": "DT_FLOAT"
            }
          }
        },
        {
          "name": "StatefulPartitionedCall/model/BLOCK_2-4_CONV_1/Conv2D_weights",
          "op": "Const",
          "attr": {
            "dtype": {
              "type": "DT_FLOAT"
            },
            "value": {
              "tensor": {
                "dtype": "DT_FLOAT",
                "tensorShape": {
                  "dim": [
                    {
                      "size": "1"
                    },
                    {
                      "size": "1"
                    },
                    {
                      "size": "72"
                    },
                    {
                      "size": "288"
                    }
                  ]
                }
              }
            }
          }
        },
        {
          "name": "StatefulPartitionedCall/model/BLOCK_2-4_CONV_1/Conv2D_bn_offset",
          "op": "Const",
          "attr": {
            "value": {
              "tensor": {
                "dtype": "DT_FLOAT",
                "tensorShape": {
                  "dim": [
                    {
                      "size": "288"
                    }
                  ]
                }
              }
            },
            "dtype": {
              "type": "DT_FLOAT"
            }
          }
        },
        {
          "name": "StatefulPartitionedCall/model/BLOCK_2-4_CONV_2/depthwise_weights",
          "op": "Const",
          "attr": {
            "dtype": {
              "type": "DT_FLOAT"
            },
            "value": {
              "tensor": {
                "dtype": "DT_FLOAT",
                "tensorShape": {
                  "dim": [
                    {
                      "size": "3"
                    },
                    {
                      "size": "3"
                    },
                    {
                      "size": "288"
                    },
                    {
                      "size": "1"
                    }
                  ]
                }
              }
            }
          }
        },
        {
          "name": "StatefulPartitionedCall/model/BLOCK_2-4_CONV_2/depthwise_bn_offset",
          "op": "Const",
          "attr": {
            "value": {
              "tensor": {
                "dtype": "DT_FLOAT",
                "tensorShape": {
                  "dim": [
                    {
                      "size": "288"
                    }
                  ]
                }
              }
            },
            "dtype": {
              "type": "DT_FLOAT"
            }
          }
        },
        {
          "name": "StatefulPartitionedCall/model/BLOCK_3-1_CONV_1/Conv2D_weights",
          "op": "Const",
          "attr": {
            "dtype": {
              "type": "DT_FLOAT"
            },
            "value": {
              "tensor": {
                "dtype": "DT_FLOAT",
                "tensorShape": {
                  "dim": [
                    {
                      "size": "1"
                    },
                    {
                      "size": "1"
                    },
                    {
                      "size": "72"
                    },
                    {
                      "size": "864"
                    }
                  ]
                }
              }
            }
          }
        },
        {
          "name": "StatefulPartitionedCall/model/BNORM_POST_NOQUANT/FusedBatchNormV3/Scaled",
          "op": "Const",
          "attr": {
            "dtype": {
              "type": "DT_FLOAT"
            },
            "value": {
              "tensor": {
                "dtype": "DT_FLOAT",
                "tensorShape": {
                  "dim": [
                    {
                      "size": "192"
                    }
                  ]
                }
              }
            }
          }
        },
        {
          "name": "StatefulPartitionedCall/model/BLOCK_3-1_CONV_1/Conv2D_bn_offset",
          "op": "Const",
          "attr": {
            "dtype": {
              "type": "DT_FLOAT"
            },
            "value": {
              "tensor": {
                "dtype": "DT_FLOAT",
                "tensorShape": {
                  "dim": [
                    {
                      "size": "864"
                    }
                  ]
                }
              }
            }
          }
        },
        {
          "name": "StatefulPartitionedCall/model/BLOCK_3-1_CONV_2/depthwise_weights",
          "op": "Const",
          "attr": {
            "dtype": {
              "type": "DT_FLOAT"
            },
            "value": {
              "tensor": {
                "dtype": "DT_FLOAT",
                "tensorShape": {
                  "dim": [
                    {
                      "size": "3"
                    },
                    {
                      "size": "3"
                    },
                    {
                      "size": "864"
                    },
                    {
                      "size": "1"
                    }
                  ]
                }
              }
            }
          }
        },
        {
          "name": "StatefulPartitionedCall/model/BLOCK_3-1_CONV_2/depthwise_bn_offset",
          "op": "Const",
          "attr": {
            "dtype": {
              "type": "DT_FLOAT"
            },
            "value": {
              "tensor": {
                "dtype": "DT_FLOAT",
                "tensorShape": {
                  "dim": [
                    {
                      "size": "864"
                    }
                  ]
                }
              }
            }
          }
        },
        {
          "name": "StatefulPartitionedCall/model/BLOCK_3-2_CONV_1/Conv2D_weights",
          "op": "Const",
          "attr": {
            "dtype": {
              "type": "DT_FLOAT"
            },
            "value": {
              "tensor": {
                "dtype": "DT_FLOAT",
                "tensorShape": {
                  "dim": [
                    {
                      "size": "1"
                    },
                    {
                      "size": "1"
                    },
                    {
                      "size": "108"
                    },
                    {
                      "size": "864"
                    }
                  ]
                }
              }
            }
          }
        },
        {
          "name": "StatefulPartitionedCall/model/BLOCK_3-2_CONV_1/Conv2D_bn_offset",
          "op": "Const",
          "attr": {
            "dtype": {
              "type": "DT_FLOAT"
            },
            "value": {
              "tensor": {
                "dtype": "DT_FLOAT",
                "tensorShape": {
                  "dim": [
                    {
                      "size": "864"
                    }
                  ]
                }
              }
            }
          }
        },
        {
          "name": "StatefulPartitionedCall/model/BLOCK_3-2_CONV_2/depthwise_weights",
          "op": "Const",
          "attr": {
            "value": {
              "tensor": {
                "dtype": "DT_FLOAT",
                "tensorShape": {
                  "dim": [
                    {
                      "size": "3"
                    },
                    {
                      "size": "3"
                    },
                    {
                      "size": "864"
                    },
                    {
                      "size": "1"
                    }
                  ]
                }
              }
            },
            "dtype": {
              "type": "DT_FLOAT"
            }
          }
        },
        {
          "name": "StatefulPartitionedCall/model/BLOCK_3-2_CONV_2/depthwise_bn_offset",
          "op": "Const",
          "attr": {
            "dtype": {
              "type": "DT_FLOAT"
            },
            "value": {
              "tensor": {
                "dtype": "DT_FLOAT",
                "tensorShape": {
                  "dim": [
                    {
                      "size": "864"
                    }
                  ]
                }
              }
            }
          }
        },
        {
          "name": "StatefulPartitionedCall/model/BLOCK_3-3_CONV_1/Conv2D_weights",
          "op": "Const",
          "attr": {
            "value": {
              "tensor": {
                "dtype": "DT_FLOAT",
                "tensorShape": {
                  "dim": [
                    {
                      "size": "1"
                    },
                    {
                      "size": "1"
                    },
                    {
                      "size": "108"
                    },
                    {
                      "size": "864"
                    }
                  ]
                }
              }
            },
            "dtype": {
              "type": "DT_FLOAT"
            }
          }
        },
        {
          "name": "StatefulPartitionedCall/model/BLOCK_3-3_CONV_1/Conv2D_bn_offset",
          "op": "Const",
          "attr": {
            "dtype": {
              "type": "DT_FLOAT"
            },
            "value": {
              "tensor": {
                "dtype": "DT_FLOAT",
                "tensorShape": {
                  "dim": [
                    {
                      "size": "864"
                    }
                  ]
                }
              }
            }
          }
        },
        {
          "name": "StatefulPartitionedCall/model/BLOCK_3-3_CONV_2/depthwise_weights",
          "op": "Const",
          "attr": {
            "dtype": {
              "type": "DT_FLOAT"
            },
            "value": {
              "tensor": {
                "dtype": "DT_FLOAT",
                "tensorShape": {
                  "dim": [
                    {
                      "size": "3"
                    },
                    {
                      "size": "3"
                    },
                    {
                      "size": "864"
                    },
                    {
                      "size": "1"
                    }
                  ]
                }
              }
            }
          }
        },
        {
          "name": "StatefulPartitionedCall/model/BLOCK_3-3_CONV_2/depthwise_bn_offset",
          "op": "Const",
          "attr": {
            "dtype": {
              "type": "DT_FLOAT"
            },
            "value": {
              "tensor": {
                "dtype": "DT_FLOAT",
                "tensorShape": {
                  "dim": [
                    {
                      "size": "864"
                    }
                  ]
                }
              }
            }
          }
        },
        {
          "name": "StatefulPartitionedCall/model/BLOCK_3-4_CONV_1/Conv2D_weights",
          "op": "Const",
          "attr": {
            "dtype": {
              "type": "DT_FLOAT"
            },
            "value": {
              "tensor": {
                "dtype": "DT_FLOAT",
                "tensorShape": {
                  "dim": [
                    {
                      "size": "1"
                    },
                    {
                      "size": "1"
                    },
                    {
                      "size": "108"
                    },
                    {
                      "size": "864"
                    }
                  ]
                }
              }
            }
          }
        },
        {
          "name": "StatefulPartitionedCall/model/BNORM_POST_NOQUANT/FusedBatchNormV3/Offset",
          "op": "Const",
          "attr": {
            "dtype": {
              "type": "DT_FLOAT"
            },
            "value": {
              "tensor": {
                "dtype": "DT_FLOAT",
                "tensorShape": {
                  "dim": [
                    {
                      "size": "192"
                    }
                  ]
                }
              }
            }
          }
        },
        {
          "name": "StatefulPartitionedCall/model/BLOCK_3-4_CONV_1/Conv2D_bn_offset",
          "op": "Const",
          "attr": {
            "value": {
              "tensor": {
                "dtype": "DT_FLOAT",
                "tensorShape": {
                  "dim": [
                    {
                      "size": "864"
                    }
                  ]
                }
              }
            },
            "dtype": {
              "type": "DT_FLOAT"
            }
          }
        },
        {
          "name": "StatefulPartitionedCall/model/BLOCK_3-4_CONV_2/depthwise_weights",
          "op": "Const",
          "attr": {
            "dtype": {
              "type": "DT_FLOAT"
            },
            "value": {
              "tensor": {
                "dtype": "DT_FLOAT",
                "tensorShape": {
                  "dim": [
                    {
                      "size": "3"
                    },
                    {
                      "size": "3"
                    },
                    {
                      "size": "864"
                    },
                    {
                      "size": "1"
                    }
                  ]
                }
              }
            }
          }
        },
        {
          "name": "StatefulPartitionedCall/model/BLOCK_3-4_CONV_2/depthwise_bn_offset",
          "op": "Const",
          "attr": {
            "value": {
              "tensor": {
                "dtype": "DT_FLOAT",
                "tensorShape": {
                  "dim": [
                    {
                      "size": "864"
                    }
                  ]
                }
              }
            },
            "dtype": {
              "type": "DT_FLOAT"
            }
          }
        },
        {
          "name": "StatefulPartitionedCall/model/BLOCK_3-5_CONV_1/Conv2D_weights",
          "op": "Const",
          "attr": {
            "value": {
              "tensor": {
                "dtype": "DT_FLOAT",
                "tensorShape": {
                  "dim": [
                    {
…
            "name": "StatefulPartitionedCall/model/BLOCK_3-3_SE_RESHAPE/strided_slice/stack_1",
            "shape": [
              1
            ],
            "dtype": "int32"
          },
          {
            "name": "StatefulPartitionedCall/model/BLOCK_3-3_SE_RESHAPE/strided_slice/stack_2",
            "shape": [
              1
            ],
            "dtype": "int32"
          },
          {
            "name": "StatefulPartitionedCall/model/BLOCK_3-3_SE_RESHAPE/Reshape/shape/1",
            "shape": [],
            "dtype": "int32"
          },
          {
            "name": "StatefulPartitionedCall/model/BLOCK_3-3_SE_RESHAPE/Reshape/shape/2",
            "shape": [],
            "dtype": "int32"
          },
          {
            "name": "StatefulPartitionedCall/model/BLOCK_3-3_SE_RESHAPE/Reshape/shape/3",
            "shape": [],
            "dtype": "int32"
          },
          {
            "name": "StatefulPartitionedCall/model/BLOCK_3-3_SE_CONV_1/Conv2D/ReadVariableOp",
            "shape": [
              1,
              1,
              864,
              27
            ],
            "dtype": "float32"
          },
          {
            "name": "StatefulPartitionedCall/model/BLOCK_3-3_SE_CONV_2/Conv2D/ReadVariableOp",
            "shape": [
              1,
              1,
              27,
              864
            ],
            "dtype": "float32"
          },
          {
            "name": "StatefulPartitionedCall/model/BLOCK_3-3_CONV_3/Conv2D/ReadVariableOp",
            "shape": [
              1,
              1,
              864,
              108
            ],
            "dtype": "float32"
          },
          {
            "name": "StatefulPartitionedCall/model/BLOCK_3-2_SE_AVG_POOL_1/Mean/reduction_indices",
            "shape": [
              2
            ],
            "dtype": "int32"
          },
          {
            "name": "StatefulPartitionedCall/model/BLOCK_3-2_SE_RESHAPE/strided_slice/stack",
            "shape": [
              1
            ],
            "dtype": "int32"
          },
          {
            "name": "StatefulPartitionedCall/model/BLOCK_3-2_SE_RESHAPE/strided_slice/stack_1",
            "shape": [
              1
            ],
            "dtype": "int32"
          },
          {
            "name": "StatefulPartitionedCall/model/BLOCK_3-2_SE_RESHAPE/strided_slice/stack_2",
            "shape": [
              1
            ],
            "dtype": "int32"
          },
          {
            "name": "StatefulPartitionedCall/model/BLOCK_3-2_SE_RESHAPE/Reshape/shape/1",
            "shape": [],
            "dtype": "int32"
          },
          {
            "name": "StatefulPartitionedCall/model/BLOCK_3-2_SE_RESHAPE/Reshape/shape/2",
            "shape": [],
            "dtype": "int32"
          },
          {
            "name": "StatefulPartitionedCall/model/BLOCK_3-2_SE_RESHAPE/Reshape/shape/3",
            "shape": [],
            "dtype": "int32"
          },
          {
            "name": "StatefulPartitionedCall/model/BLOCK_3-2_SE_CONV_1/Conv2D/ReadVariableOp",
            "shape": [
              1,
              1,
              864,
              27
            ],
            "dtype": "float32"
          },
          {
            "name": "StatefulPartitionedCall/model/BLOCK_3-2_SE_CONV_2/Conv2D/ReadVariableOp",
            "shape": [
              1,
              1,
              27,
              864
            ],
            "dtype": "float32"
          },
          {
            "name": "StatefulPartitionedCall/model/BLOCK_3-2_CONV_3/Conv2D/ReadVariableOp",
            "shape": [
              1,
              1,
              864,
              108
            ],
            "dtype": "float32"
          },
          {
            "name": "StatefulPartitionedCall/model/BLOCK_2-4_SE_AVG_POOL_1/Mean/reduction_indices",
            "shape": [
              2
            ],
            "dtype": "int32"
          },
          {
            "name": "StatefulPartitionedCall/model/BLOCK_2-4_SE_RESHAPE/strided_slice/stack",
            "shape": [
              1
            ],
            "dtype": "int32"
          },
          {
            "name": "StatefulPartitionedCall/model/BLOCK_2-4_SE_RESHAPE/strided_slice/stack_1",
            "shape": [
              1
            ],
            "dtype": "int32"
          },
          {
            "name": "StatefulPartitionedCall/model/BLOCK_2-4_SE_RESHAPE/strided_slice/stack_2",
            "shape": [
              1
            ],
            "dtype": "int32"
          },
          {
            "name": "StatefulPartitionedCall/model/BLOCK_2-4_SE_RESHAPE/Reshape/shape/1",
            "shape": [],
            "dtype": "int32"
          },
          {
            "name": "StatefulPartitionedCall/model/BLOCK_2-4_SE_RESHAPE/Reshape/shape/2",
            "shape": [],
            "dtype": "int32"
          },
          {
            "name": "StatefulPartitionedCall/model/BLOCK_2-4_SE_RESHAPE/Reshape/shape/3",
            "shape": [],
            "dtype": "int32"
          },
          {
            "name": "StatefulPartitionedCall/model/BLOCK_2-4_SE_CONV_1/Conv2D/ReadVariableOp",
            "shape": [
              1,
              1,
              288,
              18
            ],
            "dtype": "float32"
          },
          {
            "name": "StatefulPartitionedCall/model/BLOCK_2-4_SE_CONV_2/Conv2D/ReadVariableOp",
            "shape": [
              1,
              1,
              18,
              288
            ],
            "dtype": "float32"
          },
          {
            "name": "StatefulPartitionedCall/model/BLOCK_2-4_CONV_3/Conv2D/ReadVariableOp",
            "shape": [
              1,
              1,
              288,
              72
            ],
            "dtype": "float32"
          },
          {
            "name": "StatefulPartitionedCall/model/BLOCK_2-3_SE_AVG_POOL_1/Mean/reduction_indices",
            "shape": [
              2
            ],
            "dtype": "int32"
          },
          {
            "name": "StatefulPartitionedCall/model/BLOCK_2-3_SE_RESHAPE/strided_slice/stack",
            "shape": [
              1
            ],
            "dtype": "int32"
          },
          {
            "name": "StatefulPartitionedCall/model/BLOCK_2-3_SE_RESHAPE/strided_slice/stack_1",
            "shape": [
              1
            ],
            "dtype": "int32"
          },
          {
            "name": "StatefulPartitionedCall/model/BLOCK_2-3_SE_RESHAPE/strided_slice/stack_2",
            "shape": [
              1
            ],
            "dtype": "int32"
          },
          {
            "name": "StatefulPartitionedCall/model/BLOCK_2-3_SE_RESHAPE/Reshape/shape/1",
            "shape": [],
            "dtype": "int32"
          },
          {
            "name": "StatefulPartitionedCall/model/BLOCK_2-3_SE_RESHAPE/Reshape/shape/2",
            "shape": [],
            "dtype": "int32"
          },
          {
            "name": "StatefulPartitionedCall/model/BLOCK_2-3_SE_RESHAPE/Reshape/shape/3",
            "shape": [],
            "dtype": "int32"
          },
          {
            "name": "StatefulPartitionedCall/model/BLOCK_2-3_SE_CONV_1/Conv2D/ReadVariableOp",
            "shape": [
              1,
              1,
              288,
              18
            ],
            "dtype": "float32"
          },
          {
            "name": "StatefulPartitionedCall/model/BLOCK_2-3_SE_CONV_2/Conv2D/ReadVariableOp",
            "shape": [
              1,
              1,
              18,
              288
            ],
            "dtype": "float32"
          },
          {
            "name": "StatefulPartitionedCall/model/BLOCK_2-3_CONV_3/Conv2D/ReadVariableOp",
            "shape": [
              1,
              1,
              288,
              72
            ],
            "dtype": "float32"
          },
          {
            "name": "StatefulPartitionedCall/model/BLOCK_2-2_SE_AVG_POOL_1/Mean/reduction_indices",
            "shape": [
              2
            ],
            "dtype": "int32"
          },
          {
            "name": "StatefulPartitionedCall/model/BLOCK_2-2_SE_RESHAPE/strided_slice/stack",
            "shape": [
              1
            ],
            "dtype": "int32"
          },
          {
            "name": "StatefulPartitionedCall/model/BLOCK_2-2_SE_RESHAPE/strided_slice/stack_1",
            "shape": [
              1
            ],
            "dtype": "int32"
          },
          {
            "name": "StatefulPartitionedCall/model/BLOCK_2-2_SE_RESHAPE/strided_slice/stack_2",
            "shape": [
              1
            ],
            "dtype": "int32"
          },
          {
            "name": "StatefulPartitionedCall/model/BLOCK_2-2_SE_RESHAPE/Reshape/shape/1",
            "shape": [],
            "dtype": "int32"
          },
          {
            "name": "StatefulPartitionedCall/model/BLOCK_2-2_SE_RESHAPE/Reshape/shape/2",
            "shape": [],
            "dtype": "int32"
          },
          {
            "name": "StatefulPartitionedCall/model/BLOCK_2-2_SE_RESHAPE/Reshape/shape/3",
            "shape": [],
            "dtype": "int32"
          },
          {
            "name": "StatefulPartitionedCall/model/BLOCK_2-2_SE_CONV_1/Conv2D/ReadVariableOp",
            "shape": [
              1,
              1,
              288,
              18
            ],
            "dtype": "float32"
          },
          {
            "name": "StatefulPartitionedCall/model/BLOCK_2-2_SE_CONV_2/Conv2D/ReadVariableOp",
            "shape": [
              1,
              1,
              18,
              288
            ],
            "dtype": "float32"
          },
          {
            "name": "StatefulPartitionedCall/model/BLOCK_2-2_CONV_3/Conv2D/ReadVariableOp",
            "shape": [
              1,
              1,
              288,
              72
            ],
            "dtype": "float32"
          },
          {
            "name": "StatefulPartitionedCall/model/BLOCK_1-3_CONV_3/Conv2D/ReadVariableOp",
            "shape": [
              1,
              1,
              72,
              36
            ],
            "dtype": "float32"
          },
          {
            "name": "StatefulPartitionedCall/model/BLOCK_1-2_CONV_3/Conv2D/ReadVariableOp",
            "shape": [
              1,
              1,
              72,
              36
            ],
            "dtype": "float32"
          },
          {
            "name": "StatefulPartitionedCall/model/MEL_SPEC1/Tensordot/Const",
            "shape": [
              1
            ],
            "dtype": "int32"
          },
          {
            "name": "StatefulPartitionedCall/model/MEL_SPEC1/Tensordot/axes",
            "shape": [
              1
            ],
            "dtype": "int32"
          },
          {
            "name": "StatefulPartitionedCall/model/MEL_SPEC1/Tensordot/GatherV2_1/axis",
            "shape": [],
            "dtype": "int32"
          },
          {
            "name": "StatefulPartitionedCall/model/MEL_SPEC1/Tensordot/Const_1",
            "shape": [
              1
            ],
            "dtype": "int32"
          },
          {
            "name": "unknown",
            "shape": [
              1025,
              96
            ],
            "dtype": "float32"
          },
          {
            "name": "StatefulPartitionedCall/model/MEL_SPEC1/stft/frame/zeros_like",
            "shape": [
              2
            ],
            "dtype": "int32"
          },
          {
            "name": "StatefulPartitionedCall/model/MEL_SPEC1/stft/frame/mul/y",
            "shape": [],
            "dtype": "int32"
          },
          {
            "name": "StatefulPartitionedCall/model/MEL_SPEC1/stft/frame/concat/axis",
            "shape": [],
            "dtype": "int32"
          },
          {
            "name": "StatefulPartitionedCall/model/MEL_SPEC1/stft/frame/ones_like",
            "shape": [
              2
            ],
            "dtype": "int32"
          },
          {
            "name": "StatefulPartitionedCall/model/MEL_SPEC1/stft/frame/floordiv_3/y",
            "shape": [],
            "dtype": "int32"
          },
          {
            "name": "StatefulPartitionedCall/model/MEL_SPEC1/stft/frame/concat_1/values_1/1",
            "shape": [],
            "dtype": "int32"
          },
          {
            "name": "StatefulPartitionedCall/model/MEL_SPEC1/stft/frame/concat_1/axis",
            "shape": [],
            "dtype": "int32"
          },
          {
            "name": "StatefulPartitionedCall/model/MEL_SPEC1/stft/frame/range_1/start",
            "shape": [],
            "dtype": "int32"
          },
          {
            "name": "StatefulPartitionedCall/model/MEL_SPEC1/stft/frame/range_1/delta",
            "shape": [],
            "dtype": "int32"
          },
          {
            "name": "StatefulPartitionedCall/model/MEL_SPEC1/stft/frame/floordiv_2",
            "shape": [],
            "dtype": "int32"
          },
          {
            "name": "StatefulPartitionedCall/model/MEL_SPEC1/stft/frame/Reshape_2/shape/1",
            "shape": [],
            "dtype": "int32"
          },
          {
            "name": "StatefulPartitionedCall/model/MEL_SPEC1/stft/frame/Reshape_3",
            "shape": [
              1,
              1024
            ],
            "dtype": "int32"
          },
          {
            "name": "StatefulPartitionedCall/model/MEL_SPEC1/stft/frame/strided_slice",
            "shape": [],
            "dtype": "int32"
          },
          {
            "name": "StatefulPartitionedCall/model/MEL_SPEC1/stft/frame/Maximum/x",
            "shape": [],
            "dtype": "int32"
          },
          {
            "name": "StatefulPartitionedCall/model/MEL_SPEC1/stft/frame/add/x",
            "shape": [],
            "dtype": "int32"
          },
          {
            "name": "StatefulPartitionedCall/model/MEL_SPEC1/stft/frame/Reshape/shape_1",
            "shape": [
              0
            ],
            "dtype": "int32"
          },
          {
            "name": "StatefulPartitionedCall/model/MEL_SPEC1/stft/frame_step",
            "shape": [],
            "dtype": "int32"
          },
          {
            "name": "StatefulPartitionedCall/model/MEL_SPEC1/stft/frame_length",
            "shape": [],
            "dtype": "int32"
          },
          {
            "name": "StatefulPartitionedCall/model/MEL_SPEC1/Min/reduction_indices",
            "shape": [],
            "dtype": "int32"
          },
          {
            "name": "StatefulPartitionedCall/model/MEL_SPEC1/Max/reduction_indices",
            "shape": [],
            "dtype": "int32"
          },
          {
            "name": "StatefulPartitionedCall/model/MEL_SPEC1/add/y",
            "shape": [],
            "dtype": "float32"
          },
          {
            "name": "StatefulPartitionedCall/model/MEL_SPEC1/Sub_1/y",
            "shape": [],
            "dtype": "float32"
          },
          {
            "name": "StatefulPartitionedCall/model/MEL_SPEC1/Mul/y",
            "shape": [],
            "dtype": "float32"
          },
          {
            "name": "StatefulPartitionedCall/model/MEL_SPEC1/stft/frame/packed",
            "shape": [
              3
            ],
            "dtype": "int32"
          },
          {
            "name": "StatefulPartitionedCall/model/MEL_SPEC1/stft/frame/split/split_dim",
            "shape": [],
            "dtype": "int32"
          },
          {
            "name": "StatefulPartitionedCall/model/MEL_SPEC1/stft/frame/concat_2/axis",
            "shape": [],
            "dtype": "int32"
          },
          {
            "name": "StatefulPartitionedCall/model/MEL_SPEC1/stft/hann_window/sub_2",
            "shape": [
              2048
            ],
            "dtype": "float32"
          },
          {
            "name": "StatefulPartitionedCall/model/MEL_SPEC1/stft/rfft/fft_length",
            "shape": [
              1
            ],
            "dtype": "int32"
          },
          {
            "name": "StatefulPartitionedCall/model/MEL_SPEC1/Tensordot/free",
            "shape": [
              2
            ],
            "dtype": "int32"
          },
          {
            "name": "StatefulPartitionedCall/model/MEL_SPEC1/Tensordot/GatherV2/axis",
            "shape": [],
            "dtype": "int32"
          },
          {
            "name": "StatefulPartitionedCall/model/MEL_SPEC1/Tensordot/Const_2",
            "shape": [
              1
            ],
            "dtype": "int32"
          },
          {
            "name": "StatefulPartitionedCall/model/MEL_SPEC1/Tensordot/concat_1/axis",
            "shape": [],
            "dtype": "int32"
          },
          {
            "name": "StatefulPartitionedCall/model/MEL_SPEC1/truediv_1",
            "shape": [],
            "dtype": "float32"
          },
          {
            "name": "StatefulPartitionedCall/model/MEL_SPEC1/ReverseV2/axis",
            "shape": [
              1
            ],
            "dtype": "int32"
          },
          {
            "name": "StatefulPartitionedCall/model/MEL_SPEC1/transpose/perm",
            "shape": [
              3
            ],
            "dtype": "int32"
          },
          {
            "name": "StatefulPartitionedCall/model/MEL_SPEC1/ExpandDims/dim",
            "shape": [],
            "dtype": "int32"
          },
          {
            "name": "StatefulPartitionedCall/model/MEL_SPEC2/Tensordot/Const",
            "shape": [
              1
            ],
            "dtype": "int32"
          },
          {
            "name": "StatefulPartitionedCall/model/MEL_SPEC2/Tensordot/axes",
            "shape": [
              1
            ],
            "dtype": "int32"
          },
          {
            "name": "StatefulPartitionedCall/model/MEL_SPEC2/Tensordot/GatherV2_1/axis",
            "shape": [],
            "dtype": "int32"
          },
          {
            "name": "StatefulPartitionedCall/model/MEL_SPEC2/Tensordot/Const_1",
            "shape": [
              1
            ],
            "dtype": "int32"
          },
          {
            "name": "unknown_1",
            "shape": [
              513,
              96
            ],
            "dtype": "float32"
          },
          {
            "name": "StatefulPartitionedCall/model/MEL_SPEC2/stft/frame/zeros_like",
            "shape": [
              2
            ],
            "dtype": "int32"
          },
          {
            "name": "StatefulPartitionedCall/model/MEL_SPEC2/stft/frame/mul/y",
            "shape": [],
            "dtype": "int32"
          },
          {
            "name": "StatefulPartitionedCall/model/MEL_SPEC2/stft/frame/concat/axis",
            "shape": [],
            "dtype": "int32"
          },
          {
            "name": "StatefulPartitionedCall/model/MEL_SPEC2/stft/frame/ones_like",
            "shape": [
              2
            ],
            "dtype": "int32"
          },
          {
            "name": "StatefulPartitionedCall/model/MEL_SPEC2/stft/frame/floordiv_3/y",
            "shape": [],
            "dtype": "int32"
          },
          {
            "name": "StatefulPartitionedCall/model/MEL_SPEC2/stft/frame/concat_1/values_1/1",
            "shape": [],
            "dtype": "int32"
          },
          {
            "name": "StatefulPartitionedCall/model/MEL_SPEC2/stft/frame/concat_1/axis",
            "shape": [],
            "dtype": "int32"
          },
          {
            "name": "StatefulPartitionedCall/model/MEL_SPEC2/stft/frame/range_1/start",
            "shape": [],
            "dtype": "int32"
          },
          {
            "name": "StatefulPartitionedCall/model/MEL_SPEC2/stft/frame/range_1/delta",
            "shape": [],
            "dtype": "int32"
          },
          {
            "name": "StatefulPartitionedCall/model/MEL_SPEC2/stft/frame/floordiv_2",
            "shape": [],
            "dtype": "int32"
          },
          {
            "name": "StatefulPartitionedCall/model/MEL_SPEC2/stft/frame/Reshape_2/shape/1",
            "shape": [],
            "dtype": "int32"
          },
          {
            "name": "StatefulPartitionedCall/model/MEL_SPEC2/stft/frame/Reshape_3",
            "shape": [
              1,
              128
            ],
            "dtype": "int32"
          },
          {
            "name": "StatefulPartitionedCall/model/MEL_SPEC2/stft/frame/strided_slice",
            "shape": [],
            "dtype": "int32"
          },
          {
            "name": "StatefulPartitionedCall/model/MEL_SPEC2/stft/frame/Maximum/x",
            "shape": [],
            "dtype": "int32"
          },
          {
            "name": "StatefulPartitionedCall/model/MEL_SPEC2/stft/frame/add/x",
            "shape": [],
            "dtype": "int32"
          },
          {
            "name": "StatefulPartitionedCall/model/MEL_SPEC2/stft/frame/Reshape/shape_1",
            "shape": [
              0
            ],
            "dtype": "int32"
          },
          {
            "name": "StatefulPartitionedCall/model/MEL_SPEC2/stft/frame_step",
            "shape": [],
            "dtype": "int32"
          },
          {
            "name": "StatefulPartitionedCall/model/MEL_SPEC2/stft/frame_length",
            "shape": [],
            "dtype": "int32"
          },
          {
            "name": "StatefulPartitionedCall/model/MEL_SPEC2/Min/reduction_indices",
            "shape": [],
            "dtype": "int32"
          },
          {
            "name": "StatefulPartitionedCall/model/MEL_SPEC2/Max/reduction_indices",
            "shape": [],
            "dtype": "int32"
          },
          {
            "name": "StatefulPartitionedCall/model/MEL_SPEC2/add/y",
            "shape": [],
            "dtype": "float32"
          },
          {
            "name": "StatefulPartitionedCall/model/MEL_SPEC2/Sub_1/y",
            "shape": [],
            "dtype": "float32"
          },
          {
            "name": "StatefulPartitionedCall/model/MEL_SPEC2/Mul/y",
            "shape": [],
            "dtype": "float32"
          },
          {
            "name": "StatefulPartitionedCall/model/MEL_SPEC2/stft/frame/packed",
            "shape": [
              3
            ],
            "dtype": "int32"
          },
          {
            "name": "StatefulPartitionedCall/model/MEL_SPEC2/stft/frame/split/split_dim",
            "shape": [],
            "dtype": "int32"
          },
          {
            "name": "StatefulPartitionedCall/model/MEL_SPEC2/stft/frame/concat_2/axis",
            "shape": [],
            "dtype": "int32"
          },
          {
            "name": "StatefulPartitionedCall/model/MEL_SPEC2/stft/hann_window/sub_2",
            "shape": [
              1024
            ],
            "dtype": "float32"
          },
          {
            "name": "StatefulPartitionedCall/model/MEL_SPEC2/stft/rfft/fft_length",
            "shape": [
              1
            ],
            "dtype": "int32"
          },
          {
            "name": "StatefulPartitionedCall/model/MEL_SPEC2/Tensordot/free",
            "shape": [
              2
            ],
            "dtype": "int32"
          },
          {
            "name": "StatefulPartitionedCall/model/MEL_SPEC2/Tensordot/GatherV2/axis",
            "shape": [],
            "dtype": "int32"
          },
          {
            "name": "StatefulPartitionedCall/model/MEL_SPEC2/Tensordot/Const_2",
            "shape": [
              1
            ],
            "dtype": "int32"
          },
          {
            "name": "StatefulPartitionedCall/model/MEL_SPEC2/Tensordot/concat_1/axis",
            "shape": [],
            "dtype": "int32"
          },
          {
            "name": "StatefulPartitionedCall/model/MEL_SPEC2/truediv_1",
            "shape": [],
            "dtype": "float32"
          },
          {
            "name": "StatefulPartitionedCall/model/MEL_SPEC2/ReverseV2/axis",
            "shape": [
              1
            ],
            "dtype": "int32"
          },
          {
            "name": "StatefulPartitionedCall/model/MEL_SPEC2/transpose/perm",
            "shape": [
              3
            ],
            "dtype": "int32"
          },
          {
            "name": "StatefulPartitionedCall/model/MEL_SPEC2/ExpandDims/dim",
            "shape": [],
            "dtype": "int32"
          },
          {
            "name": "StatefulPartitionedCall/model/concatenate/concat/axis",
            "shape": [],
            "dtype": "int32"
          },
          {
            "name": "StatefulPartitionedCall/model/POOL_0_CONCAT/concat/axis",
            "shape": [],
            "dtype": "int32"
          },
          {
            "name": "StatefulPartitionedCall/model/POOL_0_CONV/Conv2D/ReadVariableOp",
            "shape": [
              1,
              1,
              48,
              24
            ],
            "dtype": "float32"
          },
          {
            "name": "StatefulPartitionedCall/model/POOL_0_CONV/BiasAdd/ReadVariableOp",
            "shape": [
              24
            ],
            "dtype": "float32"
          },
          {
            "name": "StatefulPartitionedCall/model/BLOCK_1-1_PAD/Pad/paddings",
            "shape": [
              4,
              2
            ],
            "dtype": "int32"
          },
          {
            "name": "StatefulPartitionedCall/model/BLOCK_1-1_CONV_3/Conv2D/ReadVariableOp",
            "shape": [
              1,
              1,
              72,
              36
            ],
            "dtype": "float32"
          },
          {
            "name": "StatefulPartitionedCall/model/BLOCK_2-1_PAD/Pad/paddings",
            "shape": [
              4,
              2
            ],
            "dtype": "int32"
          },
          {
            "name": "StatefulPartitionedCall/model/BLOCK_2-1_SE_AVG_POOL_1/Mean/reduction_indices",
            "shape": [
              2
            ],
            "dtype": "int32"
          },
          {
            "name": "StatefulPartitionedCall/model/BLOCK_2-1_SE_RESHAPE/strided_slice/stack",
            "shape": [
              1
            ],
            "dtype": "int32"
          },
          {
            "name": "StatefulPartitionedCall/model/BLOCK_2-1_SE_RESHAPE/strided_slice/stack_1",
            "shape": [
              1
            ],
            "dtype": "int32"
          },
          {
            "name": "StatefulPartitionedCall/model/BLOCK_2-1_SE_RESHAPE/strided_slice/stack_2",
            "shape": [
              1
            ],
            "dtype": "int32"
          },
          {
            "name": "StatefulPartitionedCall/model/BLOCK_2-1_SE_RESHAPE/Reshape/shape/1",
            "shape": [],
            "dtype": "int32"
          },
          {
            "name": "StatefulPartitionedCall/model/BLOCK_2-1_SE_RESHAPE/Reshape/shape/2",
            "shape": [],
            "dtype": "int32"
          },
          {
            "name": "StatefulPartitionedCall/model/BLOCK_2-1_SE_RESHAPE/Reshape/shape/3",
            "shape": [],
            "dtype": "int32"
          },
          {
            "name": "StatefulPartitionedCall/model/BLOCK_2-1_SE_CONV_1/Conv2D/ReadVariableOp",
            "shape": [
              1,
              1,
              288,
              18
            ],
            "dtype": "float32"
          },
          {
            "name": "StatefulPartitionedCall/model/BLOCK_2-1_SE_CONV_2/Conv2D/ReadVariableOp",
            "shape": [
              1,
              1,
              18,
              288
            ],
            "dtype": "float32"
          },
          {
            "name": "StatefulPartitionedCall/model/BLOCK_2-1_CONV_3/Conv2D/ReadVariableOp",
            "shape": [
              1,
              1,
              288,
              72
            ],
            "dtype": "float32"
          },
          {
            "name": "StatefulPartitionedCall/model/BLOCK_3-1_PAD/Pad/paddings",
            "shape": [
              4,
              2
            ],
            "dtype": "int32"
          },
          {
            "name": "StatefulPartitionedCall/model/BLOCK_3-1_SE_AVG_POOL_1/Mean/reduction_indices",
            "shape": [
              2
            ],
            "dtype": "int32"
          },
          {
            "name": "StatefulPartitionedCall/model/BLOCK_3-1_SE_RESHAPE/strided_slice/stack",
            "shape": [
              1
            ],
            "dtype": "int32"
          },
          {
            "name": "StatefulPartitionedCall/model/BLOCK_3-1_SE_RESHAPE/strided_slice/stack_1",
            "shape": [
              1
            ],
            "dtype": "int32"
          },
          {
            "name": "StatefulPartitionedCall/model/BLOCK_3-1_SE_RESHAPE/strided_slice/stack_2",
            "shape": [
              1
            ],
            "dtype": "int32"
          },
          {
            "name": "StatefulPartitionedCall/model/BLOCK_3-1_SE_RESHAPE/Reshape/shape/1",
            "shape": [],
            "dtype": "int32"
          },
          {
            "name": "StatefulPartitionedCall/model/BLOCK_3-1_SE_RESHAPE/Reshape/shape/2",
            "shape": [],
            "dtype": "int32"
          },
          {
            "name": "StatefulPartitionedCall/model/BLOCK_3-1_SE_RESHAPE/Reshape/shape/3",
            "shape": [],
            "dtype": "int32"
          },
          {
            "name": "StatefulPartitionedCall/model/BLOCK_3-1_SE_CONV_1/Conv2D/ReadVariableOp",
            "shape": [
              1,
              1,
              864,
              27
            ],
            "dtype": "float32"
          },
          {
            "name": "StatefulPartitionedCall/model/BLOCK_3-1_SE_CONV_2/Conv2D/ReadVariableOp",
            "shape": [
              1,
              1,
              27,
              864
            ],
            "dtype": "float32"
          },
          {
            "name": "StatefulPartitionedCall/model/BLOCK_3-1_CONV_3/Conv2D/ReadVariableOp",
            "shape": [
              1,
              1,
              864,
              108
            ],
            "dtype": "float32"
          },
          {
            "name": "StatefulPartitionedCall/model/BLOCK_4-1_PAD/Pad/paddings",
            "shape": [
              4,
              2
            ],
            "dtype": "int32"
          },
          {
            "name": "StatefulPartitionedCall/model/BLOCK_4-1_SE_AVG_POOL_1/Mean/reduction_indices",
            "shape": [
              2
            ],
            "dtype": "int32"
          },
          {
            "name": "StatefulPartitionedCall/model/BLOCK_4-1_SE_RESHAPE/strided_slice/stack",
            "shape": [
              1
            ],
            "dtype": "int32"
          },
          {
            "name": "StatefulPartitionedCall/model/BLOCK_4-1_SE_RESHAPE/strided_slice/stack_1",
            "shape": [
              1
            ],
            "dtype": "int32"
          },
          {
            "name": "StatefulPartitionedCall/model/BLOCK_4-1_SE_RESHAPE/strided_slice/stack_2",
            "shape": [
              1
            ],
            "dtype": "int32"
          },
          {
            "name": "StatefulPartitionedCall/model/BLOCK_4-1_SE_RESHAPE/Reshape/shape/1",
            "shape": [],
            "dtype": "int32"
          },
          {
            "name": "StatefulPartitionedCall/model/BLOCK_4-1_SE_RESHAPE/Reshape/shape/2",
            "shape": [],
            "dtype": "int32"
          },
          {
            "name": "StatefulPartitionedCall/model/BLOCK_4-1_SE_RESHAPE/Reshape/shape/3",
            "shape": [],
            "dtype": "int32"
          },
          {
            "name": "StatefulPartitionedCall/model/BLOCK_4-1_SE_CONV_1/Conv2D/ReadVariableOp",
            "shape": [
              1,
              1,
              1536,
              48
            ],
            "dtype": "float32"
          },
          {
            "name": "StatefulPartitionedCall/model/BLOCK_4-1_SE_CONV_2/Conv2D/ReadVariableOp",
            "shape": [
              1,
              1,
              48,
              1536
            ],
            "dtype": "float32"
          },
          {
            "name": "StatefulPartitionedCall/model/BLOCK_4-1_CONV_3/Conv2D/ReadVariableOp",
            "shape": [
              1,
              1,
              1536,
              192
            ],
            "dtype": "float32"
          },
          {
            "name": "StatefulPartitionedCall/model/GLOBAL_AVG_POOL/Mean/reduction_indices",
            "shape": [
              2
            ],
            "dtype": "int32"
          },
          {
            "name": "StatefulPartitionedCall/model/CLASS_DENSE_LAYER/MatMul/ReadVariableOp",
            "shape": [
              1024,
              6522
            ],
            "dtype": "float32"
          },
          {
            "name": "StatefulPartitionedCall/model/CLASS_DENSE_LAYER/BiasAdd/ReadVariableOp",
            "shape": [
              6522
            ],
            "dtype": "float32"
          },
          {
            "name": "StatefulPartitionedCall/model/CONV_0/Conv2D_weights",
            "shape": [
              4,
              8,
              2,
              24
            ],
            "dtype": "float32"
          },
          {
            "name": "StatefulPartitionedCall/model/BNORM_SPEC_NOQUANT/FusedBatchNormV3/Offset",
            "shape": [
              2
            ],
            "dtype": "float32"
          },
          {
            "name": "StatefulPartitionedCall/model/CONV_0/Conv2D_bn_offset",
            "shape": [
              24
            ],
            "dtype": "float32"
          },
          {
            "name": "StatefulPartitionedCall/model/BLOCK_1-1_CONV_1/Conv2D_weights",
            "shape": [
              1,
              1,
              24,
              72
            ],
            "dtype": "float32"
          },
          {
            "name": "StatefulPartitionedCall/model/BLOCK_1-1_CONV_1/Conv2D_bn_offset",
            "shape": [
              72
            ],
            "dtype": "float32"
          },
          {
            "name": "StatefulPartitionedCall/model/BLOCK_1-1_CONV_2/depthwise_weights",
            "shape": [
              3,
              3,
              72,
              1
            ],
            "dtype": "float32"
          },
          {
            "name": "StatefulPartitionedCall/model/BLOCK_1-1_CONV_2/depthwise_bn_offset",
            "shape": [
              72
            ],
            "dtype": "float32"
          },
          {
            "name": "StatefulPartitionedCall/model/BLOCK_1-2_CONV_1/Conv2D_weights",
            "shape": [
              1,
              1,
              36,
              72
            ],
            "dtype": "float32"
          },
          {
            "name": "StatefulPartitionedCall/model/BLOCK_1-2_CONV_1/Conv2D_bn_offset",
            "shape": [
              72
            ],
            "dtype": "float32"
          },
          {
            "name": "StatefulPartitionedCall/model/BLOCK_1-2_CONV_2/depthwise_weights",
            "shape": [
              3,
              3,
              72,
              1
            ],
            "dtype": "float32"
          },
          {
            "name": "StatefulPartitionedCall/model/BLOCK_1-2_CONV_2/depthwise_bn_offset",
            "shape": [
              72
            ],
            "dtype": "float32"
          },
          {
            "name": "StatefulPartitionedCall/model/BLOCK_1-3_CONV_1/Conv2D_weights",
            "shape": [
              1,
              1,
              36,
              72
            ],
            "dtype": "float32"
          },
          {
            "name": "StatefulPartitionedCall/model/BLOCK_1-3_CONV_1/Conv2D_bn_offset",
            "shape": [
              72
            ],
            "dtype": "float32"
          },
          {
            "name": "StatefulPartitionedCall/model/BLOCK_1-3_CONV_2/depthwise_weights",
            "shape": [
              3,
              3,
              72,
              1
            ],
            "dtype": "float32"
          },
          {
            "name": "StatefulPartitionedCall/model/BLOCK_1-3_CONV_2/depthwise_bn_offset",
            "shape": [
              72
            ],
            "dtype": "float32"
          },
          {
            "name": "StatefulPartitionedCall/model/BLOCK_2-1_CONV_1/Conv2D_weights",
            "shape": [
              1,
              1,
              36,
              288
            ],
            "dtype": "float32"
          },
          {
            "name": "StatefulPartitionedCall/model/BLOCK_2-1_CONV_1/Conv2D_bn_offset",
            "shape": [
              288
            ],
            "dtype": "float32"
          },
          {
            "name": "StatefulPartitionedCall/model/BLOCK_2-1_CONV_2/depthwise_weights",
            "shape": [
              3,
              3,
              288,
              1
            ],
            "dtype": "float32"
          },
          {
            "name": "StatefulPartitionedCall/model/BLOCK_2-1_CONV_2/depthwise_bn_offset",
            "shape": [
              288
            ],
            "dtype": "float32"
          },
          {
            "name": "StatefulPartitionedCall/model/BLOCK_2-2_CONV_1/Conv2D_weights",
            "shape": [
              1,
              1,
              72,
              288
            ],
            "dtype": "float32"
          },
          {
            "name": "StatefulPartitionedCall/model/BLOCK_2-2_CONV_1/Conv2D_bn_offset",
            "shape": [
              288
            ],
            "dtype": "float32"
          },
          {
            "name": "StatefulPartitionedCall/model/BLOCK_2-2_CONV_2/depthwise_weights",
            "shape": [
              3,
              3,
              288,
              1
            ],
            "dtype": "float32"
          },
          {
            "name": "StatefulPartitionedCall/model/BLOCK_2-2_CONV_2/depthwise_bn_offset",
            "shape": [
              288
            ],
            "dtype": "float32"
          },
          {
            "name": "StatefulPartitionedCall/model/BLOCK_2-3_CONV_1/Conv2D_weights",
            "shape": [
              1,
              1,
              72,
              288
            ],
            "dtype": "float32"
          },
          {
            "name": "StatefulPartitionedCall/model/BLOCK_2-3_CONV_1/Conv2D_bn_offset",
            "shape": [
              288
            ],
            "dtype": "float32"
          },
          {
            "name": "StatefulPartitionedCall/model/BLOCK_2-3_CONV_2/depthwise_weights",
            "shape": [
              3,
              3,
              288,
              1
            ],
            "dtype": "float32"
          },
          {
            "name": "StatefulPartitionedCall/model/BLOCK_2-3_CONV_2/depthwise_bn_offset",
            "shape": [
              288
            ],
            "dtype": "float32"
          },
          {
            "name": "StatefulPartitionedCall/model/BLOCK_2-4_CONV_1/Conv2D_weights",
            "shape": [
              1,
              1,
              72,
              288
            ],
            "dtype": "float32"
          },
          {
            "name": "StatefulPartitionedCall/model/BLOCK_2-4_CONV_1/Conv2D_bn_offset",
            "shape": [
              288
            ],
            "dtype": "float32"
          },
          {
            "name": "StatefulPartitionedCall/model/BLOCK_2-4_CONV_2/depthwise_weights",
            "shape": [
              3,
              3,
              288,
              1
            ],
            "dtype": "float32"
          },
          {
            "name": "StatefulPartitionedCall/model/BLOCK_2-4_CONV_2/depthwise_bn_offset",
            "shape": [
              288
            ],
            "dtype": "float32"
          },
          {
            "name": "StatefulPartitionedCall/model/BLOCK_3-1_CONV_1/Conv2D_weights",
            "shape": [
              1,
              1,
              72,
              864
            ],
            "dtype": "float32"
          },
          {
            "name": "StatefulPartitionedCall/model/BNORM_POST_NOQUANT/FusedBatchNormV3/Scaled",
            "shape": [
              192
            ],
            "dtype": "float32"
          },
          {
            "name": "StatefulPartitionedCall/model/BLOCK_3-1_CONV_1/Conv2D_bn_offset",
            "shape": [
              864
            ],
            "dtype": "float32"
          },
          {
            "name": "StatefulPartitionedCall/model/BLOCK_3-1_CONV_2/depthwise_weights",
            "shape": [
              3,
              3,
              864,
              1
            ],
            "dtype": "float32"
          },
          {
            "name": "StatefulPartitionedCall/model/BLOCK_3-1_CONV_2/depthwise_bn_offset",
            "shape": [
              864
            ],
            "dtype": "float32"
          },
          {
            "name": "StatefulPartitionedCall/model/BLOCK_3-2_CONV_1/Conv2D_weights",
            "shape": [
              1,
              1,
              108,
              864
            ],
            "dtype": "float32"
          },
          {
            "name": "StatefulPartitionedCall/model/BLOCK_3-2_CONV_1/Conv2D_bn_offset",
            "shape": [
              864
            ],
            "dtype": "float32"
          },
          {
            "name": "StatefulPartitionedCall/model/BLOCK_3-2_CONV_2/depthwise_weights",
            "shape": [
              3,
              3,
              864,
              1
            ],
            "dtype": "float32"
          },
          {
            "name": "StatefulPartitionedCall/model/BLOCK_3-2_CONV_2/depthwise_bn_offset",
            "shape": [
              864
            ],
            "dtype": "float32"
          },
          {
            "name": "StatefulPartitionedCall/model/BLOCK_3-3_CONV_1/Conv2D_weights",
            "shape": [
              1,
              1,
              108,
              864
            ],
            "dtype": "float32"
          },
          {
            "name": "StatefulPartitionedCall/model/BLOCK_3-3_CONV_1/Conv2D_bn_offset",
            "shape": [
              864
            ],
            "dtype": "float32"
          },
          {
            "name": "StatefulPartitionedCall/model/BLOCK_3-3_CONV_2/depthwise_weights",
            "shape": [
              3,
              3,
              864,
              1
            ],
            "dtype": "float32"
          },
          {
            "name": "StatefulPartitionedCall/model/BLOCK_3-3_CONV_2/depthwise_bn_offset",
            "shape": [
              864
            ],
            "dtype": "float32"
          },
          {
            "name": "StatefulPartitionedCall/model/BLOCK_3-4_CONV_1/Conv2D_weights",
            "shape": [
              1,
              1,
              108,
              864
            ],
            "dtype": "float32"
          },
          {
            "name": "StatefulPartitionedCall/model/BNORM_POST_NOQUANT/FusedBatchNormV3/Offset",
            "shape": [
              192
            ],
            "dtype": "float32"
          },
          {
            "name": "StatefulPartitionedCall/model/BLOCK_3-4_CONV_1/Conv2D_bn_offset",
            "shape": [
              864
            ],
            "dtype": "float32"
          },
          {
            "name": "StatefulPartitionedCall/model/BLOCK_3-4_CONV_2/depthwise_weights",
            "shape": [
              3,
              3,
              864,
              1
            ],
            "dtype": "float32"
          },
          {
            "name": "StatefulPartitionedCall/model/BLOCK_3-4_CONV_2/depthwise_bn_offset",
            "shape": [
              864
            ],
            "dtype": "float32"
          },
          {
            "name": "StatefulPartitionedCall/model/BLOCK_3-5_CONV_1/Conv2D_weights",
            "shape": [
              1,
              1,
              108,
              864
            ],
            "dtype": "float32"
          },
          {
            "name": "StatefulPartitionedCall/model/BLOCK_3-5_CONV_1/Conv2D_bn_offset",
            "shape": [
              864
            ],
            "dtype": "float32"
          },
          {
            "name": "StatefulPartitionedCall/model/BLOCK_3-5_CONV_2/depthwise_weights",
            "shape": [
              3,
              3,
              864,
              1
            ],
            "dtype": "float32"
          },
          {
            "name": "StatefulPartitionedCall/model/BLOCK_3-5_CONV_2/depthwise_bn_offset",
            "shape": [
              864
            ],
            "dtype": "float32"
          },
          {
            "name": "StatefulPartitionedCall/model/BLOCK_4-1_CONV_1/Conv2D_weights",
            "shape": [
              1,
              1,
              108,
              1536
            ],
            "dtype": "float32"
          },
          {
            "name": "StatefulPartitionedCall/model/BLOCK_4-1_CONV_1/Conv2D_bn_offset",
            "shape": [
              1536
            ],
            "dtype": "float32"
          },
          {
            "name": "StatefulPartitionedCall/model/BLOCK_4-1_CONV_2/depthwise_weights",
            "shape": [
              3,
              3,
              1536,
              1
            ],
            "dtype": "float32"
          },
          {
            "name": "StatefulPartitionedCall/model/BLOCK_4-1_CONV_2/depthwise_bn_offset",
            "shape": [
              1536
            ],
            "dtype": "float32"
          },
          {
            "name": "StatefulPartitionedCall/model/BLOCK_4-2_CONV_1/Conv2D_weights",
            "shape": [
              1,
              1,
              192,
              1536
            ],
            "dtype": "float32"
          },
          {
            "name": "StatefulPartitionedCall/model/BLOCK_4-2_CONV_1/Conv2D_bn_offset",
            "shape": [
              1536
            ],
            "dtype": "float32"
          },
          {
            "name": "StatefulPartitionedCall/model/BLOCK_4-2_CONV_2/depthwise_weights",
            "shape": [
              3,
              3,
              1536,
              1
            ],
            "dtype": "float32"
          },
          {
            "name": "StatefulPartitionedCall/model/BLOCK_4-2_CONV_2/depthwise_bn_offset",
            "shape": [
              1536
            ],
            "dtype": "float32"
          },
          {
            "name": "StatefulPartitionedCall/model/BLOCK_4-3_CONV_1/Conv2D_weights",
            "shape": [
              1,
              1,
              192,
              1536
            ],
            "dtype": "float32"
          },
          {
            "name": "StatefulPartitionedCall/model/BNORM_SPEC_NOQUANT/FusedBatchNormV3/Scaled",
            "shape": [
              2
            ],
            "dtype": "float32"
          },
          {
            "name": "StatefulPartitionedCall/model/BLOCK_4-3_CONV_1/Conv2D_bn_offset",
            "shape": [
              1536
            ],
            "dtype": "float32"
          },
          {
            "name": "StatefulPartitionedCall/model/BLOCK_4-3_CONV_2/depthwise_weights",
            "shape": [
              3,
              3,
              1536,
              1
            ],
            "dtype": "float32"
          },
          {
            "name": "StatefulPartitionedCall/model/BLOCK_4-3_CONV_2/depthwise_bn_offset",
            "shape": [
              1536
            ],
            "dtype": "float32"
          },
          {
            "name": "StatefulPartitionedCall/model/BLOCK_4-4_CONV_1/Conv2D_weights",
            "shape": [
              1,
              1,
              192,
              1536
            ],
            "dtype": "float32"
          },
          {
            "name": "StatefulPartitionedCall/model/BLOCK_4-4_CONV_1/Conv2D_bn_offset",
            "shape": [
              1536
            ],
            "dtype": "float32"
          },
          {
            "name": "StatefulPartitionedCall/model/BLOCK_4-4_CONV_2/depthwise_weights",
            "shape": [
              3,
              3,
              1536,
              1
            ],
            "dtype": "float32"
          },
          {
            "name": "StatefulPartitionedCall/model/BLOCK_4-4_CONV_2/depthwise_bn_offset",
            "shape": [
              1536
            ],
            "dtype": "float32"
          },
          {
            "name": "StatefulPartitionedCall/model/POST_CONV_1/Conv2D_weights",
            "shape": [
              3,
              3,
              192,
              1024
            ],
            "dtype": "float32"
          },
          {
            "name": "StatefulPartitionedCall/model/POST_CONV_1/Conv2D_bn_offset",
            "shape": [
              1024
            ],
            "dtype": "float32"
          },
          {
            "name": "ConstantFolding/StatefulPartitionedCall/model/MEL_SPEC1/stft/frame/concat/values_1_const_axis",
            "shape": [],
            "dtype": "int32"
          },
          {
            "name": "ConstantFolding/StatefulPartitionedCall/model/MEL_SPEC2/stft/frame/concat/values_1_const_axis",
            "shape": [],
            "dtype": "int32"
          }
        ]
      }
    ]
  }